exploratory notebooks/models/original/best_discriminator.pth (torch, 203318 bytes, 5 tensors)

conv_blocks.0.weight f4 [64, 65, 4]
-0.1623447 -0.142578 -0.06078007 0.019810168 0.047113985 -0.046274688 0.058778312 -0.0047314432
-0.09422034 -0.03568787 -0.05810915 -0.009242645 -0.12678759 -0.097102255 -0.05370672 -0.07285522
-0.22879875 -0.1141919 -0.26909357 -0.22095375 -0.2749567 -0.32178745 -0.2906045 -0.28313977
-0.17086415 -0.15360479 -0.063325666 -0.19579993 -0.12194096 -0.09951782 -0.10412613 -0.14446285
-0.16695596 -0.14949109 -0.21405427 -0.19138749 -0.09119997 0.010372805 -0.07635881 -0.088514745
-0.07107621 -0.07952684 -0.05213126 -0.11868668 -0.04461809 -0.009554046 0.010218039 0.017014615
0.07164163 -0.00010812191 0.035330527 0.035654414 -0.046519797 -0.004394255 -0.043492984 -0.0071696937
0.016850173 -0.015336254 0.00072815246 0.023811849 0.025678078 0.047374494 0.0480039 0.051377315
0.046343144 0.08772778 -0.013322978 0.05707692 0.07394468 -0.0026439177 -0.004512074 0.10161111
-0.041018017 -0.09887237 0.0008091375 -0.080680445 -0.050052065 0.015383295 -0.028988028 0.027910886
-0.009585649 -0.01205662 -0.04252173 -0.017872684 -0.056960408 -0.038077638 -0.03546775 0.019862646
0.007983582 -0.067252904 0.01423413 -0.112826034 -0.021475594 0.012272025 0.033081938 -0.0010983791
0.054700464 0.029186402 -0.021506732 -0.0039365822 0.038522184 -0.027742574 -0.023502473 0.031132521
0.07256318 -0.011631511 0.021967033 0.00873335 0.06819769 -0.03451145 0.04109869 0.021342784
0.13422473 -0.07013183 -0.013140174 0.045058433 0.112580374 0.09216374 0.08455998 0.09117565
0.06067183 -0.017987067 0.06076679 0.10271343 0.02982857 -0.04226264 0.008184308 -0.04515647
-0.050126433 -0.029531932 -0.045877587 -0.009092915 -0.056465246 -0.09789115 0.050125346 -0.023048528
-0.043252535 -0.05391667 -0.036699887 0.02350413 -0.04496343 -0.090172604 0.008613354 -0.024335528
-0.15950628 -0.078499354 -0.02592675 -0.16475096 -0.25699842 -0.20171244 -0.23358595 -0.32521245
-0.20816125 -0.21271591 -0.14204834 -0.2721392 -0.04215844 -0.06364474 -0.044173393 -0.050818644
-0.20555918 -0.21386018 -0.14283282 -0.21080826 -0.14456642 0.021917498 -0.1410516 -0.0042317198
-0.00218619 -0.06880931 -0.047418937 -0.07050528 0.08478513 0.018037153 -0.029605517 0.021143787
4.4532266e-05 -0.038140837 0.041191988 0.020138808 0.098984554 -0.086984016 0.104122646 -0.013897186
0.0941636 0.013072712 0.14960423 0.010880977 0.048283618 0.091556594 0.10176761 0.015539594
-0.009781115 -0.08931894 -0.013361471 -0.0110242525 0.045854684 0.033594385 0.029466052 0.071043864
-0.059255257 -0.064932324 -0.03729662 -0.04606377 0.033685915 -0.10194148 0.020894857 -0.010102534
0.027932484 0.066558175 -0.09166698 -0.071923055 -0.0014645188 -0.020104064 -0.017911753 -0.060996342
-0.043389082 -0.04152458 -0.063259915 -0.1016214 -0.05256376 -0.03457873 -0.07021561 -0.03059836
-0.008730525 -0.0022024717 -0.052603595 -0.055813603 0.06198149 0.04928821 0.032048002 -0.033950925
0.08078584 0.03607498 0.048147313 0.030928545 0.04152835 -0.01381222 0.1388683 0.094605885
0.02257127 -0.059089366 0.03341263 0.093119666 -0.027033513 -0.115778275 0.009970757 -0.026232598
-0.01760623 -0.005833051 -0.043035947 0.00040199503 0.20566867 0.20140614 0.13846917 0.18723793
00000000: b03d 26be f8ff 11be 86f4 78bd ef48 a23c
00000010: 98fa 403d 878a 3dbd 87c1 703d 390a 9bbb
00000020: 98f6 c0bd 722d 12bd dc03 6ebd 776e 17bc
00000030: 9bd4 01be 8cdd c6bd 94fb 5bbd 1e35 95bd
00000040: 384a 6abe 71dd e9bd a2c6 89be b341 62be
00000050: 20c7 8cbe 53c1 a4be 1dca 94be b2f7 90be
00000060: 03f7 2ebe 934a 1dbe e3b0 81bd c77f 48be
00000070: 2fbc f9bd 00d0 cbbd 1540 d5bd 12ee 13be
00000080: 81f6 2abe 3114 19be 0b31 5bbe 15fb 43be
00000090: 0dc7 babd b3f2 293c 0262 9cbd 3847 b5bd
000000a0: 6790 91bd f8de a2bd 9787 55bd 0112 f3bd
000000b0: 75c1 36bd 9388 1cbc 9069 273c 3c62 8b3c
000000c0: d9b8 923d 82bf e2b8 beb6 103d 5d0a 123d
000000d0: 8b8b 3ebd affd 8fbb b325 32bd c0ef eabb
000000e0: 6009 8a3c e944 7bbc 7ce1 3e3a 1111 c33c
000000f0: d55a d23c c20b 423d bd9f 443d 0571 523d
00000100: 4fd2 3d3d 9faa b33d 9f48 5abc 7dc9 693d
00000110: 4f70 973d 9445 2dbb 05da 93bb 7c19 d03d
00000120: 8202 28bd 997d cabd 4c1c 543a ca3b a5bd
00000130: 6503 4dbd 370a 7c3c 4d78 edbc 5fa5 e43c
00000140: 200d 1dbc 2189 45bc 442b 2ebd bc69 92bc
00000150: 514f 69bd 4cf7 1bbd a246 11bd fdb6 a23c
00000160: 92cd 023c e4bb 89bd 4536 693c 5611 e7bd
00000170: 96ed afbc 9b10 493c ed80 073d 7df7 8fba
00000180: 980d 603d 5218 ef3c e32e b0bc 72fe 80bb
00000190: 70c9 1d3d 6544 e3bc 4288 c0bc a109 ff3c
000001a0: 019c 943d 1892 3ebc 35f4 b33c 5316 0f3c
000001b0: 3bab 8b3d e15b 0dbd 1a57 283d 10d7 ae3c
000001c0: 3572 093e 47a1 8fbd e249 57bc 318f 383d
000001d0: 8a90 e63d 58c0 bc3d c82d ad3d 4dba ba3d
000001e0: 0683 783d 9d59 93bc 99e6 783d 6b5b d23d
000001f0: 0c5b f43c 971b 2dbd 7a17 063c fef5 38bd
00000200: 6051 4dbd f3ec f1bc 23ea 3bbd 73fa 14bc
00000210: 1a48 67bd 287b c8bd 3c50 4d3d 44d0 bcbc
00000220: 9229 31bd bad7 5cbd 9f52 16bd bc8b c03c
00000230: 932b 38bd 6aac b8bd 061f 0d3c 4d5b c7bc
00000240: 9d55 23be 45c4 a0bd 5664 d4bc 7ab4 28be
00000250: 4c95 83be b58d 4ebe 2831 6fbe 3f82 a6be
00000260: 3928 55be 33d2 59be 1f75 11be d455 8bbe
00000270: 54ae 2cbd 2c58 82bd 29ef 34bd 3627 50bd
00000280: 1b7e 52be 2afe 5abe c442 12be 1fde 57be
00000290: 3809 14be 538c b33c d56f 10be 3daa 8abb
000002a0: 2f46 0fbb e5eb 8cbd 5c3a 42bd 1265 90bd
000002b0: d4a3 ad3d a7c2 933c 4587 f2bc bc35 ad3c
000002c0: 28c8 3a38 9139 1cbd eeb8 283d 24fa a43c
000002d0: 6ab8 ca3d ad24 b2bd 413e d53d 06b1 63bc
000002e0: d8d8 c03d ee2e 563c da31 193e 2046 323c
000002f0: 0bc5 453d 0682 bb3d 896b d03d c899 7e3c
00000300: f840 20bc d9ec b6bd 12ea 5abc 119f 34bc
00000310: 1fd2 3b3d 449a 093d ca62 f13c 727f 913d
00000320: a4b5 72bd 3dfb 84bd 57c4 18bd 5dad 3cbd
00000330: 3efa 093d b2c6 d0bd b12b ab3c 1985 25bc
00000340: aad2 e43c a74f 883d e6bb bbbd 654c 93bd
00000350: 19f5 bfba 47b1 a4bc abbb 92bc 4dd7 79bd
00000360: c0b8 31bd ae15 2abd 6a8e 81bd e11e d0bd
00000370: 194d 57bd 6da2 0dbd 34cd 8fbd 69a9 fabc
00000380: 7a0a 0fbc 5857 10bb de76 57bd ce9c 64bd
00000390: 4ee0 7d3d 6fe2 493d c444 033d 2010 0bbd
000003a0: 0c73 a53d 5cc3 133d 1e36 453d dc5d fd3c
000003b0: a219 2a3d a64c 62bc 7e33 0e3e bbc0 c13d
000003c0: 62e7 b83c b107 72bd afdb 083d 86b5 be3d
000003d0: 6375 ddbc 291d edbd 635c 233c bfe5 d6bc
000003e0: f13a 90bc 2e23 bfbb 7646 30bd dcc2 d239
000003f0: cf9a 523e 693d 4e3e ddca 0d3e 4dbb 3f3e

conv_blocks.0.bias f4 [64]
0.17292416 0.08573497 -0.16857971 0.05603646 0.042868685 -0.26912317 -0.039341483 0.21595287
0.0020159672 0.1253103 0.50887614 0.18012376 -0.11091332 0.15325794 0.023529634 0.0025755535
0.04459613 0.111536734 -0.026781857 0.007723943 -0.031441126 0.047165815 -0.047046203 -0.122997575
-0.12729752 -0.23273245 -0.067344196 -0.028656574 0.050563578 0.03772982 0.049744133 -0.028384967
-0.04307265 -0.113833636 0.13356413 0.03605567 0.16411611 0.00074818515 -0.097036414 -0.20956199
0.28204018 0.41348615 -0.039361645 0.04190356 0.40457153 0.033041477 0.13527699 -0.009725804
0.03511806 0.05882845 0.1980409 -0.10706614 0.13442574 0.048767574 0.023809379 0.12745759
0.09764691 -0.0731451 0.03465968 0.05141392 0.41686183 0.104229264 0.4507333 0.44144893
00000000: 0813 313e d195 af3d 29a0 2cbe 7d86 653d
00000010: 1397 2f3d 83ca 89be 8924 21bd c022 5d3e
00000020: 511e 043b 5851 003e b545 023f 5d72 383e
00000030: 8626 e3bd a6ef 1c3e 38c1 c03c 9eca 283b
00000040: 6eaa 363d 5f6d e43d a065 dbbc 2119 fd3b
00000050: 69c8 00bd f130 413d 85b3 40bd 27e6 fbbd
00000060: 485a 02be 6a51 6ebe c1eb 89bd 31c1 eabc
00000070: c11b 4f3d 958a 1a3d 81c0 4b3d 9787 e8bc
00000080: f26c 30bd 9c21 e9bd 09c5 083e 1caf 133d
00000090: 0e0e 283e db21 443a 07bb c6bd 6b97 56be
000000a0: 9267 903e 75b4 d33e ad39 21bd 11a3 2b3d
000000b0: 0024 cf3e 8056 073d 0d86 0a3e fb58 1fbc
000000c0: f4d7 0f3d 1af6 703d 3ccb 4a3e 7e45 dbbd
000000d0: e7a6 093e 82c0 473d e30b c33c 3e84 023e
000000e0: 1afb c73d 19cd 95bd 4ff7 0d3d 6797 523d
000000f0: ea6e d53e 2776 d53d 84c6 e63e 9805 e23e

conv_blocks.2.weight f4 [128, 64, 4]
0.19696973 0.18977949 0.18990459 0.1778456 0.037683938 -0.0130609805 -0.060062647 -0.00031970575
-0.07281098 -0.047105163 -0.098965235 -0.11017216 0.07479092 -0.017006593 0.00039545327 0.097612195
-0.06601636 -0.023009123 -0.07800569 0.06852799 -0.009804512 -0.02029369 0.034424625 -0.013963414
0.07075643 0.0143368 -0.06711581 0.03355701 0.19168751 0.16515754 0.19385383 0.18610056
0.13456897 0.13393722 0.020202572 0.13111746 0.27747315 0.25200117 0.17122218 0.12962897
-0.17186384 -0.16562091 -0.1952135 -0.17462409 0.0052528386 -0.02171419 -0.03267196 0.052039295
0.072997555 0.025076514 0.0023613514 0.02493033 0.18548958 0.18552667 0.17588069 0.19636418
0.05353947 0.11762322 0.080172814 0.14045618 0.29531455 0.10401433 0.17128213 0.17460555
0.037022814 -0.034387395 -0.029707668 0.05766882 -0.0001763531 0.03348198 0.016997045 0.031548314
-0.017976694 -0.041455615 -0.030248903 0.020594332 0.20180897 0.09014965 0.03679956 0.15196006
0.09431911 0.030837722 0.024408447 0.006300204 0.044101994 0.098715805 0.03645462 0.13720323
0.08290471 0.09104034 0.07599687 0.02979891 -0.044194743 -0.09446524 -0.09638569 -0.025175307
-0.051372994 -0.08201257 -0.10501432 -0.04668334 -0.15366128 -0.13432385 -0.11632321 -0.07520096
0.011065281 0.04701225 -0.044296686 -0.008977513 -0.064832225 -0.024880758 -0.017117165 -0.06285149
0.029094126 -0.069752425 0.0064958953 0.051999956 0.026311455 0.10342209 0.048430387 0.10956731
0.09372254 0.050033737 0.06070387 0.07214452 0.0042466735 0.08210322 -0.0026531217 0.027061764
0.076785795 0.09274294 0.04172528 0.12491164 -0.046750747 -0.013086749 -0.044850852 -0.109864935
0.14302623 0.1333501 0.091109626 0.10238501 0.02754732 0.07293736 -0.062440187 9.075178e-05
0.09384819 0.03776996 0.08911523 0.12984087 0.038157735 0.07140715 0.06305793 0.07880131
0.16658783 0.056264352 0.12376499 0.14036787 -0.0028116973 -0.064077884 -0.08739589 -0.03425275
0.06972771 -0.0056740395 0.045713212 0.086424656 -0.14534165 -0.10090824 -0.08911445 -0.17289966
0.2719556 0.24665694 0.29029897 0.1592374 0.09383955 0.02108519 0.059427235 0.107480176
-0.18282247 -0.17225899 -0.17007041 -0.0958214 -0.014534448 -0.0025138457 -0.052956037 0.043350957
0.06972189 0.03253702 -0.0036685234 -0.042416435 0.01128155 0.018011011 -0.036629416 0.03521004
-0.02142788 -0.004781688 0.07474671 0.05031941 0.0022321753 -0.06429783 -0.024583185 -0.031428415
0.0120555535 0.087318935 0.09441473 0.043930944 -0.03690045 -0.06834337 -0.049163114 0.027135525
0.17328559 0.117283285 0.12230231 0.13585418 0.14341716 0.054133136 0.08132218 0.051376935
-0.050554518 -0.1252288 -0.115803756 -0.077941775 -0.053298477 -0.033647876 -0.048791356 -0.053673718
0.16886601 0.24857822 0.21419872 0.2240759 0.046429235 -0.00037550507 -0.020607386 0.10881791
-0.037209425 0.06657611 -0.01991489 0.019511439 0.08892396 0.07523667 0.01682343 0.069288716
-0.10011175 -0.061017673 -0.047912356 -0.02464627 0.10440634 -0.027172053 0.03007756 0.06250411
-0.13426459 -0.1931192 -0.16200784 -0.13257629 -0.1802377 -0.15156071 -0.22887531 -0.14123274
00000000: 6fb2 493e 8e55 423e 5976 423e 281d 363e
00000010: 795a 1a3d b9fd 55bc 4004 76bd 2e9e a7b9
00000020: ec1d 95bd 58f1 40bd 49ae cabd f1a1 e1bd
00000030: fb2b 993d 6951 8bbc d754 cf39 e7e8 c73d
00000040: 9633 87bd a17d bcbc 72c1 9fbd 6758 8c3d
00000050: 1ba3 20bc f43e a6bc d600 0d3d cec6 64bc
00000060: bfe8 903d e6e4 6a3c 0474 89bd 1373 093d
00000070: bb49 443e 0f1f 293e 9e81 463e 2591 3e3e
00000080: 73cc 093e d726 093e dd7f a53c a843 063e
00000090: f610 8e3e 4c06 813e de54 2f3e 75bd 043e
000000a0: 13fd 2fbe 8798 29be 0ce6 47be a8d0 32be
000000b0: 0120 ac3b f5e1 b1bc 08d3 05bd 2827 553d
000000c0: be7f 953d 436d cd3c e7c0 1a3b b13a cc3c
000000d0: fbf0 3d3e b4fa 3d3e 111a 343e b113 493e
000000e0: 344c 5b3d 71e4 f03d a531 a43d bfd3 0f3e
000000f0: 7833 973e 7705 d53d 9564 2f3e cccb 323e
00000100: 3ca5 173d ccd9 0cbd 7f5d f3bc 2436 6c3d
00000110: 6deb 38b9 6724 093d 633d 8b3c ce38 013d
00000120: dc43 93bc 5dcd 29bd 8ccc f7bc 72b5 a83c
00000130: 03a7 4e3e 61a0 b83d 23bb 163d 6b9b 1b3e
00000140: 612a c13d 649f fc3c 39f4 c73c f171 ce3b
00000150: 4ba4 343d 832b ca3d 7151 153d 017f 0c3e
00000160: f2c9 a93d 5c73 ba3d 3fa4 9b3d d81c f43c
00000170: 8c05 35bd fe76 c1bd dc65 c5bd 723c cebc
00000180: 7d6c 52bd 35f6 a7bd bf11 d7bd 0837 3fbd
00000190: 6259 1dbe 318c 09be dd3a eebd f602 9abd
000001a0: 274b 353c eb8f 403d 7170 35bd 6b16 13bc
000001b0: c2c6 84bd bbd2 cbbc 4c39 8cbc 48b8 80bd
000001c0: ce56 ee3c 5cda 8ebd 85db d43b e8fd 543d
000001d0: 1f8b d73c f6ce d33d f15e 463d d364 e03d
000001e0: 9af1 bf3d 2df0 4c3d 9fa4 783d 82c0 933d
000001f0: ae27 8b3b bc25 a83d ffdf 2dbb a2b0 dd3c
00000200: df41 9d3d 03f0 bd3d 21e8 2a3d add1 ff3d
00000210: b67d 3fbd ce69 56bc 87b5 37bd de00 e1bd
00000220: 7875 123e ee8c 083e af97 ba3d 3baf d13d
00000230: ebaa e13c 2f60 953d 48c1 7fbd fe51 be38
00000240: 7b33 c03d acb4 1a3d 0c82 b63d 01f5 043e
00000250: 494b 1c3d e93d 923d 8424 813d 9562 a13d
00000260: 0096 2a3e 7375 663d 8078 fd3d 98bc 0f3e
00000270: 7444 38bb 443b 83bd 9efc b2bd 9d4c 0cbd
00000280: 67cd 8e3d 4bed b9bb c73d 3b3d 69ff b03d
00000290: 71d4 14be fba8 cebd a381 b6bd 9c0c 31be
000002a0: c43d 8b3e a393 7c3e 11a2 943e 210f 233e
000002b0: f32e c03d d9ba ac3c f969 733d 911e dc3d
000002c0: d035 3bbe a964 30be f026 2ebe 033e c4bd
000002d0: e521 6ebc 55bf 24bb 6ee8 58bd c690 313d
000002e0: 5aca 8e3d 8a45 053d 9c6b 70bb dbbc 2dbd
000002f0: 40d6 383c d48b 933c ba08 16bd 6738 103d
00000300: 8589 afbc b5af 9cbb ce14 993d ba1b 4e3d
00000310: b049 123b 95ae 83bd ad62 c9bc 15bb 00bd
00000320: a884 453c 45d4 b23d 835c c13d eff0 333d
00000330: ed24 17bd 9cf7 8bbd 435f 49bd 524b de3c
00000340: c771 313e 3832 f03d a279 fa3d 5c1d 0b3e
00000350: f3db 123e b5ba 5d3d 3e8c a63d 9f70 523d
00000360: 4112 4fbd fb3b 00be 852a edbd f09f 9fbd
00000370: 814f 5abd 5bd2 09bd 72d9 47bd f9d8 5bbd
00000380: 36eb 2c3e 4a8b 7e3e e956 5b3e 2774 653e
00000390: 952c 3e3d 70df c4b9 d2d0 a8bc eddb de3d
000003a0: e968 18bd 0e59 883d 8d24 a3bc 74d6 9f3c
000003b0: c41d b63d af15 9a3d 4ad1 893c 3ee7 8d3d
000003c0: 6407 cdbd abed 79bd bf3f 44bd f9e6 c9bc
000003d0: fed2 d53d ed97 debc 3765 f63c 2802 803d
000003e0: a87c 09be 0ac1 45be 62e5 25be 14c2 07be
000003f0: 3b90 38be bb32 1bbe 4a5e 6abe 519f 10be

conv_blocks.2.bias f4 [128]
0.4583858 0.042754043 0.12469952 0.32716855 0.08009847 0.43766132 0.057406638 0.4124052
0.4946329 0.09601953 0.46601695 0.017390097 0.449573 0.46370524 0.4177011 0.051628456
0.09269751 0.030931419 0.0020499 0.42775354 0.44974238 0.054655105 0.43047905 0.4419413
0.37528616 0.024802819 0.081072494 0.48670402 0.3500957 0.47528946 0.3431693 0.03146382
0.032574173 0.50247735 0.0047635883 0.45057866 0.5036428 0.0965202 0.3620177 0.011591516
0.10298257 0.025480485 0.093096346 0.3515174 0.39236674 0.5106234 0.08460591 0.0004858781
0.38755897 0.3701074 0.08125435 0.04741662 0.021632284 0.40996516 0.10659947 0.06899896
0.46059778 0.4118396 0.49004918 0.38106462 0.05150451 0.0671707 0.48027417 0.11972481
0.028592639 0.038843714 0.31878856 0.11094693 0.06506993 0.044701636 0.43206328 0.46544412
0.0913823 0.4558159 0.021252053 0.45921385 0.0990406 0.51124024 0.07794487 0.053396557
0.046209663 0.07963083 0.028460369 0.052943844 0.09112942 0.07460304 0.04282976 0.48883823
0.11062295 0.3825118 0.46266103 0.046692967 0.40853834 0.32846212 0.02334839 0.013976173
0.32808834 0.5072072 0.034714192 0.026311679 0.10958518 0.09246872 0.02628797 0.061324745
0.0063752243 0.43589807 0.058272373 0.034939956 0.07979051 0.045242496 0.050218437 0.48583448
0.04110906 0.11949754 0.49179325 0.48824352 0.015098805 0.48850712 0.49478993 0.014195006
0.11441348 0.04938954 0.41400313 0.46610847 0.4650127 0.052750733 0.36292785 0.014634512
00000000: 8bb1 ea3e dd1e 2f3d 7662 ff3d a382 a73e
00000010: ab0a a43d 2515 e03e 3923 6b3d c626 d33e
00000020: 8640 fd3e e3a5 c43d c699 ee3e ad75 8e3c
00000030: 6f2e e63e c66a ed3e ebdc d53e 5c78 533d
00000040: 31d8 bd3d e363 fd3c 9d57 063b 8302 db3e
00000050: a244 e63e 08de 5f3d c067 dc3e 2146 e23e
00000060: 8225 c03e 482f cb3c 5609 a63d 4531 f93e
00000070: be3f b33e 2459 f33e e3b3 af3e 35e0 003d
00000080: 7f6c 053d 5ba2 003f e017 9c3b 3fb2 e63e
00000090: bcee 003f 62ac c53d 625a b93e 58ea 3d3c
000000a0: 87e8 d23d 73bc d03c 4ca9 be3d 17fa b33e
000000b0: 4be4 c83e 37b8 023f dd45 ad3d 74bd fe39
000000c0: 216e c63e b87e bd3e ae68 a63d ee37 423d
000000d0: 3036 b13c f4e6 d13e d350 da3d 544f 8d3d
000000e0: 79d3 eb3e a4dc d23e bae7 fa3e e71a c33e
000000f0: 65f6 523d cb90 893d 7fe6 f53e 4832 f53d
00000100: 1c3b ea3c 961a 1f3d 4138 a33e 2538 e33d
00000110: 6243 853d 1019 373d 6637 dd3e b14e ee3e
00000120: a526 bb3d b460 e93e c918 ae3c 141e eb3e
00000130: ccd5 ca3d a4e0 023f 8fa1 9f3d 59b6 5a3d
00000140: 5846 3d3d 7d15 a33d b825 e93c a5db 583d
00000150: 10a2 ba3d 7bc9 983d 426e 2f3d 0149 fa3e
00000160: 498e e23d 96d8 c33e e8e1 ec3e 2041 3f3d
00000170: f02b d13e 302c a83e 1f45 bf3c 51fc 643c
00000180: 32fb a73e 55d8 013f 7830 0e3d 978b d73c
00000190: 326e e03d 3e60 bd3d de59 d73c a82f 7b3d
000001a0: 42e7 d03b 082e df3e 03af 6e3d 331d 0f3d
000001b0: 3569 a33d 3250 393d d9b1 4d3d 4cbf f83e
000001c0: f961 283d 20bb f43d 53cc fb3e 0efb f93e
000001d0: fa60 773c 9b1d fa3e 1b55 fd3e 2c92 683c
000001e0: 9d51 ea3d b04c 4a3d 38f8 d33e c5a5 ee3e
000001f0: 2516 ee3e 2711 583d aed1 b93e 98c5 6f3c

conv_blocks.4.weight f4 [1, 128, 4]
-0.17293617 -0.17514038 -0.10402834 -0.20922552 0.217132 0.2360296 0.24046794 0.19303001
0.23944494 0.206672 0.27431515 0.16495669 -0.14321116 -0.15782417 -0.04084249 -0.1930695
0.23697968 0.2568483 0.2694951 0.24352612 -0.18632534 -0.13928524 -0.09305507 -0.22161749
0.1975543 0.25335908 0.27201062 0.15744233 -0.2080488 -0.03368535 -0.14052749 -0.10281467
-0.18738991 -0.17934951 -0.11777283 -0.15850885 0.24610427 0.23797263 0.23700081 0.21911429
-0.16977394 -0.19184661 -0.14513454 -0.21784185 0.21609999 0.22051342 0.26093042 0.19226097
-0.1275636 -0.1554137 -0.15198104 -0.18207262 -0.21300994 -0.12875374 -0.15423696 -0.15770663
-0.1759331 -0.12773816 -0.058888588 -0.2000631 0.18565083 0.2693013 0.26906016 0.17897592
0.22885348 0.22236258 0.18379594 0.20229423 0.19136702 0.22544907 0.27774093 0.20835717
0.18933426 0.26762044 0.19706047 0.2364132 -0.14030437 -0.043187395 -0.09971638 -0.13134326
-0.17605421 -0.10715981 -0.10128452 -0.12881519 0.15161954 0.27187422 0.25258297 0.18400724
-0.15842319 -0.11028529 -0.06735215 -0.14055969 -0.16777287 -0.14891873 -0.09827857 -0.16018532
-0.19324104 -0.094377674 -0.14587435 -0.16695048 0.15865359 0.23984133 0.22426394 0.2081599
0.23824432 0.21649177 0.23884782 0.21656127 -0.23739767 -0.12572134 -0.19364318 -0.21929793
-0.18754916 -0.10841746 -0.109338954 -0.14350186 -0.1852812 -0.060820468 -0.1480192 -0.16305283
-0.052499842 -0.123045005 -0.056103475 -0.15022372 0.19434658 0.19326894 0.25694516 0.22310129
0.21703532 0.18441115 0.22305785 0.18599601 -0.18283671 -0.107733004 -0.15096392 -0.16246614
0.24033295 0.25515604 0.20030116 0.25819445 -0.1470325 -0.1008099 -0.15210322 -0.1648898
-0.1431773 -0.18793274 -0.15587369 -0.24154297 0.23999748 0.19413102 0.24314275 0.22502866
-0.16350493 -0.077308156 -0.11872864 -0.15696554 0.24215716 0.21997333 0.25522217 0.21310054
0.1609764 0.24443695 0.2630717 0.1696703 0.21237548 0.24989022 0.24525625 0.16107649
0.23357952 0.26123303 0.1996138 0.24325344 -0.1537812 -0.1033815 -0.043804772 -0.20759524
-0.16300213 -0.087418936 -0.106355585 -0.21124999 -0.18851404 -0.12904662 -0.17340906 -0.14390321
0.17044838 0.22541638 0.22548692 0.24462396 0.20201904 0.22326599 0.24207535 0.22928046
-0.125987 -0.10195062 -0.1083716 -0.13948777 -0.10576233 -0.103246555 -0.06386925 -0.14647175
0.25262356 0.23941742 0.22748142 0.1733171 0.2241759 0.24437992 0.22871259 0.19505115
0.21343912 0.27737963 0.26538894 0.19218268 -0.18779819 -0.06693517 -0.09110489 -0.15475021
0.24209134 0.24940437 0.28413865 0.2135941 0.23317845 0.2448509 0.25612545 0.20489702
-0.17908914 -0.122069046 -0.107057124 -0.17639568 -0.17049108 -0.14776488 -0.10822749 -0.15271027
-0.21422704 -0.14281093 -0.12899218 -0.17169245 -0.18660276 -0.16671206 -0.114323966 -0.19816007
0.22739148 0.25942817 0.2286419 0.22860508 0.22547485 0.21927966 0.27314666 0.16831492
-0.17091428 -0.14050303 -0.15841946 -0.1524458 0.20467727 0.18142417 0.20698927 0.23879816
00000000: 2e16 31be 0058 33be cf0c d5bd 373f 56be
00000010: da57 5e3e beb1 713e 3a3d 763e a9a9 453e
00000020: 0e31 753e d3a1 533e 0973 8c3e 68ea 283e
00000030: f2a5 12be a99c 21be 744a 27bd 03b4 45be
00000040: cdaa 723e 9f81 833e 43fb 893e e95e 793e
00000050: 12cc 3ebe caa0 0ebe a893 bebd b2ef 62be
00000060: ad4b 4a3e 48b8 813e fa44 8b3e 9038 213e
00000070: bf0a 55be a6f9 09bd 70e6 0fbe 7f90 d2bd
00000080: 24e3 3fbe 66a7 37be e232 f1bd 2550 22be
00000090: c202 7c3e 19af 733e 57b0 723e 7f5f 603e
000000a0: 38d9 2dbe 7073 44be 269e 14be ef11 5fbe
000000b0: 5149 5d3e 45ce 613e ac98 853e 0fe0 443e
000000c0: 08a0 02be c524 1fbe eba0 1bbe 3f71 3abe
000000d0: 471f 5abe 05d8 03be 4bf0 1dbe d97d 21be
000000e0: ce27 34be cbcd 02be 2935 71bd 57dd 4cbe
000000f0: 401b 3e3e dce1 893e 41c2 893e 7745 373e
00000100: 9158 6a3e 04b3 633e 0135 3c3e 3826 4f3e
00000110: b7f5 433e 1fdc 663e 0f34 8e3e 955b 553e
00000120: d7e0 413e 8c05 893e 38ca 493e 4d16 723e
00000130: f3ab 0fbe 44e5 30bd 1a38 ccbd d97e 06be
00000140: 8e47 34be 9a76 dbbd 426e cfbd 21e8 03be
00000150: 2742 1b3e 1933 8b3e 8e52 813e 656c 3c3e
00000160: b039 22be 41dd e1bd edef 89bd e1ee 0fbe
00000170: a7cc 2bbe 277e 18be 4646 c9bd 9f07 24be
00000180: fbe0 45be 1549 c1bd 1660 15be 11f5 2abe
00000190: 1676 223e f798 753e 72a5 653e de27 553e
000001a0: 52f6 733e 05b0 5d3e 8694 743e 3dc2 5d3e
000001b0: 6018 73be 18bd 00be 664a 46be a38f 60be
000001c0: e30c 40be f909 debd 1aed dfbd 27f2 12be
000001d0: 5bba 3dbe e21e 79bd 5892 17be 52f7 26be
000001e0: 130a 57bd 05ff fbbd c2cc 65bd 3fd4 19be
000001f0: ca02 473e 4be8 453e 518e 833e aa74 643e
00000200: 823e 5e3e 47d6 3c3e 4769 643e bd75 3e3e
00000210: 8c39 3bbe 1fa3 dcbd 4996 1abe 865d 26be
00000220: d719 763e d0a3 823e bf1b 4d3e 1032 843e
00000230: b08f 16be 6c75 cebd f2c0 1bbe dfd8 28be
00000240: 129d 12be 7171 40be 5a9d 1fbe 0a57 77be
00000250: e6c1 753e 48ca 463e 6afa 783e ea6d 663e
00000260: d66d 27be bd53 9ebd 0028 f3bd 93bb 20be
00000270: 0cf8 773e b040 613e 7bac 823e 0737 5a3e
00000280: ffd6 243e ae4d 7a3e 55b1 863e 0dbe 2d3e
00000290: f578 593e 39e3 7f3e 7424 7b3e 3cf1 243e
000002a0: 782f 6f3e 56c0 853e 8f67 4c3e 6e17 793e
000002b0: d278 1dbe aeb9 d3bd a26c 33bd d993 54be
000002c0: 08ea 26be b308 b3bd f5d0 d9bd eb51 58be
000002d0: d309 41be cc24 04be 2592 31be 5d5b 13be
000002e0: 058a 2e3e 8dd3 663e 0be6 663e b47e 7a3e
000002f0: 14de 4e3e d79f 643e 9ae2 773e 7fc8 6a3e
00000300: bc02 01be 7dcb d0bd eef1 ddbd e2d5 0ebe
00000310: ec99 d8bd ee72 d3bd e2cd 82bd b1fc 15be
00000320: e057 813e d729 753e e4f0 683e 0a7a 313e
00000330: 5e8e 653e bb3e 7a3e a233 6a3e 7dbb 473e
00000340: c98f 5a3e b404 8e3e 0fe1 873e 89cb 443e
00000350: 2b4e 40be 4e15 89bd 3395 babd d776 1ebe
00000360: cbe6 773e dc63 7f3e 9f7a 913e 69b8 5a3e
00000370: 55c6 6e3e 32ba 7a3e e022 833e 86d0 513e
00000380: 2563 37be 56ff f9bd c440 dbbd 12a1 34be
00000390: 3795 2ebe ad4f 17be 60a6 ddbd 1560 1cbe
000003a0: 555e 5bbe 073d 12be 8716 04be 25d0 2fbe
000003b0: cb14 3fbe 91b6 2abe af22 eabd 79ea 4abe
000003c0: 50d9 683e c5d3 843e 1a21 6a3e 7317 6a3e
000003d0: e1e2 663e d98a 603e e1d9 8b3e bf5a 2c3e
000003e0: 2704 2fbe 07e0 0fbe b638 22be c01a 1cbe
000003f0: eb96 513e 42c7 393e fff4 533e 8187 743e
