notebooks/models/best_discriminator.pth (torch, 203318 bytes, 5 tensors)

conv_blocks.0.weight f4 [64, 65, 4]
000000 13 ba 6c bc a6 58 36 3d 87 75 49 3d 5a 4f 44 3c
       -0.01444866 0.044518135 0.04918435 0.0119818095
000010 76 e5 cc 3a 62 bb 8f 3c 0d 44 f8 3d 0d ae 04 3d
       0.001563235 0.017545406 0.12122355 0.03239255
000020 31 f4 8f bc d2 8c af 3b e8 ce c5 3b 6b be 62 3d
       -0.017572494 0.0053573633 0.006036628 0.055357378
000030 a3 88 2e 39 25 e0 74 3d 9a 76 42 3d 92 b2 0b bb
       0.00016644834 0.059784073 0.04747639 -0.0021316153
000040 25 04 ab 3d 89 7a 07 3d 90 54 3f 3d 73 e0 7f 3d
       0.083504 0.033075843 0.046711504 0.06246991
000050 5c 13 9e 3c 46 50 01 3d c4 6b ae 3d 87 63 c6 3c
       0.01929634 0.031570695 0.085166484 0.02421738
000060 5d da 3b bd 22 93 35 bd 75 f3 9e bd d6 50 94 bd
       -0.045862544 -0.04432977 -0.077612795 -0.07241981
000070 b2 23 e0 3c ad 2c c0 3b dd b1 da bc 05 e2 31 3d
       0.02736077 0.005864701 -0.02669614 0.04342844
000080 3d 0d 2d 3d 2d 12 08 bd 49 55 ae 3d 3b 8d bd 3d
       0.042248953 -0.03322046 0.085123606 0.09255453
000090 05 dc 7c 3d 69 83 12 3d e4 9d a4 3d 63 74 b3 3d
       0.061733264 0.035769854 0.08037928 0.087624334
0000a0 9a 59 b8 3d b3 c2 3d bd c1 4d ab 3c c8 40 93 3d
       0.09001465 -0.046328258 0.0209111 0.071900904
0000b0 3e 95 9c bc 83 3a 02 be b0 48 6b bd 29 06 a5 bc
       -0.019114133 -0.12717633 -0.057442367 -0.020144539
0000c0 7c 9e ca bd 5b 0c ef bd f8 7d 86 bd c1 6b 8a bc
       -0.0989351 -0.116722785 -0.065669954 -0.016897084
0000d0 95 b4 89 3d 02 8d 6b bd 0d 07 70 3d 95 48 58 3d
       0.067238964 -0.057507522 0.058600474 0.052803595
0000e0 ec a2 c3 3d 3d a9 c7 3c d5 40 63 3d ef 88 58 3c
       0.09552559 0.024372691 0.05548175 0.013216241
0000f0 f9 ec 62 3d ca b6 2c 3d 2f 85 62 3c 7e 9d 0b 3d
       0.055401776 0.04216651 0.013825699 0.034085743
000100 92 7a c1 3b 2f cf b4 bc 34 b0 ba 3b 4e 51 76 3d
       0.005904504 -0.02207145 0.0056972746 0.060136132
000110 a1 99 76 bc ac 01 05 3d ee 22 92 bd 7b b8 cf 3d
       -0.015051276 0.032472298 -0.071355686 0.10142609
000120 78 86 5b bd 94 92 46 bd c5 64 ca bd 28 30 01 3b
       -0.053595036 -0.04847963 -0.098825015 0.0019712541
000130 a3 18 b6 3c 90 bd 0c bd 34 d8 41 3c 80 a5 7f 3c
       0.022228545 -0.03436047 0.011831332 0.015603423
000140 ef b6 16 3d f3 6e d3 3d 25 2e b0 3d f5 b0 ea 3d
       0.036795553 0.10323896 0.08602551 0.11459533
000150 f1 12 c3 bc 4c 4c 20 3d f4 3a 5b 3d c0 dd c9 3c
       -0.023812743 0.039135262 0.05352302 0.024641871
000160 a1 7b 13 bd 72 37 0f be 47 76 ba bc 0b d8 72 3d
       -0.036006574 -0.13985994 -0.022761477 0.059288066
000170 bf ca 13 bd 9b a1 c9 bd c6 04 29 be 27 07 6c bd
       -0.036082026 -0.09845277 -0.16505727 -0.05762401
000180 eb 83 57 bd 12 7e 72 bd f5 c4 a5 ba 94 fd 37 3d
       -0.05261604 -0.05920226 -0.0012647199 0.044919565
000190 f0 25 fb 3c 2f 18 19 3d e5 6f 0a 3c 82 f5 8d 3b
       0.030657738 0.03737658 0.008449529 0.0043322453
0001a0 69 05 89 3d 96 ca 82 3d a3 ec 29 3c 70 bd e6 bc
       0.06690485 0.063862965 0.01037136 -0.028166503
0001b0 35 c8 0d 3d 41 37 81 bc 34 78 e5 bc a2 9a f2 bc
       0.03461476 -0.015773417 -0.028011419 -0.02961475
0001c0 06 51 2e 3d 7f f3 ff bc 7c fd 6c bc 01 3d 89 3d
       0.04255774 -0.031244038 -0.014464732 0.06701089
0001d0 f8 17 a2 3d 0a 6d 94 3d 02 11 c6 3d 65 eb c0 39
       0.07914728 0.0724736 0.09671213 0.00036796476
0001e0 b4 9a 91 3d b8 ea 8f 3d ca 99 55 3d a6 6b 93 3d
       0.071095854 0.07027191 0.052148618 0.07198267
0001f0 35 c5 13 3d 02 fd db bc 78 26 3a 3d fd f9 b4 3d
       0.036076743 -0.026854042 0.045446843 0.08836744
000200 5a 73 f3 3c 2b 03 de 3b 48 07 ee 3c a6 60 ce 3d
       0.02971809 0.00677528 0.029056206 0.10077028
000210 1f 20 7d 3c 7d 90 06 bd c1 8c 05 bd 08 2a af 3d
       0.015449553 -0.03285264 -0.032604937 0.08552939
000220 fd 24 26 3d 0d 18 dc 3c 9c de 1b bc f3 50 7e 3c
       0.04056262 0.026866937 -0.009513523 0.0155222295
000230 c5 a0 99 3d 63 d7 55 3d a0 d2 55 3d 4e 38 ec 3c
       0.075013675 0.052207362 0.05220282 0.028835442
000240 60 ac dd bc 22 6b 2a 3d a7 a4 8b 3d 8c 1d ac 3c
       -0.027059734 0.041606076 0.06818514 0.021010183
000250 3a fe af 3c f8 82 dd 3c 3f e0 da 3d 63 5c a3 3d
       0.02148353 0.02703999 0.10687303 0.07976606
000260 43 e6 4a 3c 1e 06 b4 bd 48 87 66 bd a4 f6 cd bd
       0.012384 -0.08790229 -0.056281358 -0.100568086
000270 5d 09 19 3b ed 7f 13 bd 01 97 e1 bd c0 ed 33 3c
       0.0023351528 -0.03601067 -0.1101513 0.010981977
000280 3a 45 a0 bc e0 9b 5e 3d b6 7d 86 3c 30 31 62 3d
       -0.01956426 0.054347873 0.016417366 0.05522269
000290 df 14 87 3d fd 7d cf 3d b2 50 b4 3d e4 7c 03 3e
       0.06595778 0.10131452 0.08804454 0.1284061
0002a0 35 55 04 bd 08 d1 c1 bd f7 57 fc bc 11 62 02 3d
       -0.032307822 -0.09463698 -0.030803664 0.031831805
0002b0 88 45 a4 bd 42 c8 b0 bd f1 19 05 bd ac 69 8e 3d
       -0.080210745 -0.08631946 -0.032495443 0.06953749
0002c0 90 1a 8e 3d f5 c9 bb 3c c3 d9 3e 3d ed d2 67 3d
       0.0693866 0.022923449 0.046594393 0.05659764
0002d0 fa 93 a1 3d 32 4c a6 bc 2b fc c2 3c a6 47 a3 3d
       0.078895524 -0.020300005 0.023801884 0.0797265
0002e0 a2 e3 1f 3c b5 ca 64 bd 20 65 3a bb 35 1f 9c 3d
       0.009758862 -0.05585738 -0.0028441623 0.0762314
0002f0 c2 3c 49 bd 26 cc 97 bc e6 fb b5 ba 37 49 05 3d
       -0.04913021 -0.018529963 -0.0013884276 0.032540526
000300 42 d3 95 bd c4 f3 c2 bc 4b 10 54 bd 18 8b 0f 3d
       -0.07315685 -0.023797877 -0.05177335 0.03504476
000310 2a 26 3b 3d e8 88 84 bd 22 d3 4a bd 14 99 09 3d
       0.045690693 -0.06471425 -0.04951776 0.033593252
000320 df b1 0c 3d 00 6c 48 bd d1 d8 4d bc ff 79 6b 3d
       0.03434932 -0.04893112 -0.0125639 0.05748939
000330 cd eb 50 3c 83 ca cc bd 28 86 3b 3c a7 bf a0 bb
       0.012751532 -0.099995635 0.01144556 -0.0049056592
000340 50 fd 43 bd b1 80 c3 bd b3 4f 78 bd b2 04 88 3c
       -0.047849 -0.0954603 -0.060622882 0.016603801
000350 75 46 de bc 1f d0 d1 bc b9 48 02 bd f3 04 7e 3d
       -0.027133206 -0.025611935 -0.031807635 0.06201644
000360 de 35 36 3d 4a 61 57 bc ee b9 59 bd c4 45 0a 3d
       0.044484966 -0.013145754 -0.053155832 0.03375794
000370 73 27 a1 bc ce b9 43 3c ef 2d 75 3b 8c 7c 70 3d
       -0.019672131 0.011946155 0.0037411412 0.058712527
000380 5c 05 73 bd 82 fb 06 bc f3 fa 62 bd 49 f9 ae bb
       -0.059331283 -0.008238675 -0.055415105 -0.0053397757
000390 20 0b 53 bd d6 6f 1a 3d 70 98 f9 bc e6 40 a4 3c
       -0.05152428 0.03770431 -0.030468196 0.020050477
0003a0 b7 9a d6 3d 0a 8a 2b 3b fd 21 44 3d e2 97 d6 bc
       0.10478728 0.0026174807 0.047883976 -0.02619547
0003b0 6d 27 c4 3d d8 2f ab 3d ee 6a 67 3d aa 14 9f 3d
       0.09577832 0.08358735 0.05649846 0.07767613
0003c0 d2 65 9a 3c c1 63 4f 3c 1d 36 d1 3c 4f 42 b7 3a
       0.01884738 0.0126580605 0.025538499 0.0013981553
0003d0 c8 3d de 3d bb 7d 01 3d fc 1b 9f ba 0e 4d 7f 3d
       0.108516276 0.031614047 -0.0012139077 0.062329344
0003e0 10 29 0f 3c 6a f7 d0 3c 00 61 66 3d ae f2 54 3d
       0.008737817 0.025508601 0.05624485 0.05198925
0003f0 05 9e 27 be 1a d9 15 be 81 71 3a be f7 3f 03 be
       -0.16368873 -0.14633599 -0.18207361 -0.1281737

conv_blocks.0.bias f4 [64]
000000 9c 32 fd bd 91 2d 11 be d5 85 79 3e 10 41 53 be
       -0.123631686 -0.14177538 0.24367459 -0.20630288
000010 9a 7b 36 be eb f1 ce 3d 73 7f 68 3e a3 f5 32 3e
       -0.17820588 0.10104736 0.22704868 0.17476515
000020 74 fc 12 3d 6c 2a 20 3e 86 b3 69 3e 4d c5 03 be
       0.03588529 0.15641183 0.22822389 -0.12868233
000030 ed 04 09 be 08 65 2c be 5f d5 11 be 80 b3 f0 3d
       -0.13380785 -0.16835415 -0.14241551 0.11752987
000040 36 d9 0f 3e 38 bd 07 be f9 f1 db bc 86 ef 4f be
       0.14047703 -0.13255775 -0.02684878 -0.20306215
000050 4d 45 8e bd 64 0e e5 bd a5 a7 cb 3d e6 28 23 3e
       -0.06946812 -0.111843854 0.09944085 0.1593357
000060 8f 34 4e 3e d5 d4 42 3e 4a b4 3a 3e 22 00 1a 3e
       0.20137237 0.19026501 0.18232837 0.15039113
000070 ca c0 33 be 1e 87 64 3e 3b 3b f7 bd cc b5 ee bc
       -0.17554012 0.22317168 -0.12071844 -0.029139422
000080 cb 1f 25 3e c4 de fc bd 18 45 1c 3e 9a 47 21 be
       0.1612541 -0.12347177 0.15260732 -0.1574997
000090 9d b3 56 be f5 41 d9 bd f0 b3 59 3e 46 41 fa bd
       -0.20966955 -0.106082834 0.21260047 -0.12219481
0000a0 ac b6 15 3e 3e d5 33 be 9e e9 2f be 5b 2c 4b be
       0.14620465 -0.17561814 -0.17178962 -0.19841139
0000b0 00 10 ee bd bb 41 0b be 40 c7 61 3e 02 57 d7 bd
       -0.116241455 -0.13599293 0.22048664 -0.10514642
0000c0 4d ab 41 3e 4c 63 70 3e 8e 7c 2e be bb 4d 56 be
       0.18913002 0.23475379 -0.17039701 -0.2092809
0000d0 8f 83 4b 3e 2b e9 42 3e ff 14 51 3e 5b 82 48 3e
       0.19874404 0.19034259 0.20418166 0.19580977
0000e0 4f 5c 51 3e 80 1b 76 3e e7 ff bc 3d a2 ad 2e 3e
       0.20445369 0.24033928 0.09228497 0.17058423
0000f0 1a 3c e5 3d 7a 21 11 be 25 e3 3f 3e 4d a1 20 be
       0.11193104 -0.14172927 0.18738993 -0.15686531

conv_blocks.2.weight f4 [128, 64, 4]
000000 13 99 1c 3e 7a 35 0b 3e 16 03 1b 3e a0 7e 12 3e
       0.15292768 0.13594618 0.15137896 0.14306116
000010 52 6a 85 3d fa 79 dc 3d 39 99 0a 3e fd 91 b6 3d
       0.065144196 0.10765453 0.13535012 0.08914564
000020 75 98 de 3d a7 80 b2 3d 74 50 e4 3d c1 fc ae 3d
       0.108689226 0.08715945 0.11148158 0.08544303
000030 07 bf 66 3e 06 7d 21 3e f0 d5 14 3e 88 2b 4b 3e
       0.22533809 0.15770349 0.14534736 0.19840825
000040 c2 64 37 3e 5f 28 dc 3d bc b8 2e 3e ad 83 23 3e
       0.1790953 0.10749888 0.17062658 0.15968199
000050 dd a5 80 3c 3d b4 e7 3c 4c 4f f5 3d 9b 3c 8f 3d
       0.01570409 0.028284186 0.11978015 0.069939815
000060 6c 79 96 3d ec c1 96 3d 6e 97 2e bc ee c7 f3 3c
       0.07347378 0.073612064 -0.010656221 0.02975842
000070 a4 16 07 3e 3e 46 95 3d 99 af e9 3d 52 7b cc 3d
       0.1319223 0.07288788 0.11410446 0.09984459
000080 35 f8 c2 3d 66 2a 41 3e b3 5f 1e 3e 57 fb ea 3d
       0.09519998 0.1886383 0.15466194 0.114737205
000090 e4 9c c0 3d a6 35 0c 3e b9 be f0 3d a7 c4 b1 3d
       0.094049245 0.1369234 0.117551275 0.086800866
0000a0 f7 68 b2 3d 44 6f 81 3c cc 60 a5 3d 7b ce 70 3c
       0.08711427 0.015800126 0.08075103 0.014697666
0000b0 c8 b8 bd 3d a3 7e 3c 3e ad c9 3e 3d 9f ff fa 3d
       0.0926376 0.18407683 0.04657905 0.12255787
0000c0 a1 a4 08 3e 59 8e 32 3e 04 16 a9 3d ec 3a 2d 3e
       0.13344051 0.17437114 0.08256152 0.16917008
0000d0 2a f4 c3 3d 0e 3c b6 3d b4 85 02 3e ee 87 4d 3e
       0.09568055 0.08898173 0.12746316 0.20071384
0000e0 b9 68 39 3e a9 74 12 3e 13 ce fb 3d d2 20 4b 3d
       0.18106355 0.14302315 0.12295165 0.049591847
0000f0 f6 28 01 3d e4 68 0f 3e ea a1 f8 3c 00 aa cc 3d
       0.031533204 0.14004856 0.030350644 0.099933624
000100 15 0f 74 3d f7 26 e0 3c ac 5d 8d 3d b5 cd ed 3c
       0.059584696 0.02736233 0.06902632 0.029028753
000110 d9 73 09 3e a6 2b c1 3d 25 7c 24 3e d8 78 b5 3d
       0.13423099 0.094321534 0.16062982 0.0886094
000120 e1 a5 b3 bc c8 f2 5a 3d 30 06 c1 3d 74 8f 96 3c
       -0.021929683 0.05345419 0.09425008 0.01837895
000130 52 8f bc 3d 4c 40 1b 3e f6 0b 29 3e da f2 2e 3e
       0.09207024 0.15161246 0.16508469 0.17084828
000140 b5 ca 2f 3e 94 f9 e3 3d c9 a1 21 3e 58 bf 86 3d
       0.1716717 0.111315876 0.15784372 0.06579465
000150 0d c9 20 3e 1b e7 33 3e 6c a5 00 3e a0 70 30 3e
       0.15701695 0.17568628 0.12563103 0.17230463
000160 f7 8c 52 3e d5 9a a2 3d 93 bc 0a 3e 6b 10 35 3e
       0.20561586 0.07939688 0.13548498 0.17682044
000170 c4 c2 19 3e df d2 20 3e 90 cd 58 3e ef 03 f0 3d
       0.15015703 0.15705441 0.21172166 0.117195
000180 f3 1d d3 3d bd 1c d5 3c e3 a5 1b 3d 9f 7f da 3d
       0.10308447 0.02601468 0.038 0.10668873
000190 df 4f 95 3d 23 03 a5 3d 39 a9 a0 3d 93 1c 83 3d
       0.07290625 0.08057239 0.07844777 0.064019345
0001a0 c3 0e f1 3c 4b 56 09 3e b8 10 ba 3d d2 20 b9 3d
       0.029425984 0.13411824 0.0908522 0.09039463
0001b0 c9 33 14 3e 14 bc b0 3d f3 a3 c5 3d 9f 19 e8 3d
       0.1447288 0.08629623 0.096504115 0.11333012
0001c0 bf b0 1d 3e 32 09 0d 3e 5b 09 00 3e aa 85 02 3e
       0.15399455 0.13773039 0.12503569 0.12746301
0001d0 87 fa ff 3d 5d 83 c2 3d b7 07 13 3e a2 81 e0 3d
       0.12498956 0.09497712 0.14358412 0.109622255
0001e0 f7 0c 12 3e 1b 28 56 3e 17 e2 64 3e dd 19 3a 3e
       0.14262758 0.20913737 0.22351871 0.18173929
0001f0 35 b2 ac ba b9 f9 52 3d 91 3a f5 bb 1e be 33 bc
       -0.0013175668 0.051507685 -0.0074837883 -0.01097062
000200 3b 4e 09 3e 08 37 40 3d 7b 4e 64 3d 3c 9e 7e 3d
       0.13408749 0.046927482 0.055738907 0.062162623
000210 84 91 01 3e 58 11 04 3e cd dc 12 3e 09 cc ba 3d
       0.12653166 0.12897241 0.14342041 0.09120948
000220 da dc af 3d 09 6f fc 3d 4f 44 be 3d c2 a8 49 3d
       0.08587046 0.12325866 0.092903726 0.049233206
000230 0d 24 10 3e b2 66 53 3e 05 67 2e 3e 71 73 2b 3e
       0.14076252 0.20644644 0.17031486 0.16743256
000240 98 09 57 3e 9c a6 f8 3d c8 f0 de 3d dc c3 0b 3e
       0.20999753 0.12141153 0.10885769 0.13648933
000250 33 64 32 3e 99 12 44 3e 90 23 27 3e c5 93 ce 3d
       0.17421035 0.1914772 0.1632216 0.100867786
000260 96 7e 28 3d 86 a6 f5 3c fb f5 be 3d 20 54 35 3d
       0.041136347 0.029986631 0.09324261 0.04426968
000270 93 b6 56 3e 99 58 1e 3e 55 3f 23 3e 71 8a d2 3d
       0.20968084 0.15463485 0.15942128 0.10280312
000280 35 14 bb 3d 98 27 c1 3d 84 d9 23 3e d3 3d cb 3d
       0.091347136 0.0943138 0.16000944 0.099239014
000290 33 97 20 3e 30 08 32 3e 7f 86 bb 3d 37 29 18 3e
       0.15682678 0.17385936 0.091565125 0.14859472
0002a0 1e 53 17 3e 45 d5 8b 3d 12 d5 92 3d 0b 52 e2 3d
       0.147778 0.06827787 0.07169546 0.11050805
0002b0 bd 1d 33 3e d2 2f 44 3d d3 b0 2a 3e 05 05 75 3d
       0.17491813 0.047897168 0.16669016 0.05981924
0002c0 1f 79 7d 3d b4 11 92 3d c3 ed 22 3e aa 2f e3 3d
       0.06188309 0.07132283 0.15911011 0.110930756
0002d0 62 77 19 3e c0 a5 5e 3e da 57 80 3e 6b e6 49 3e
       0.14986947 0.21742916 0.25067025 0.19716804
0002e0 f8 28 88 3d 9f 34 08 3e 05 ce ba 3d b5 0c 0d 3e
       0.06648439 0.13301323 0.09121326 0.13774379
0002f0 e8 04 00 3e 05 ff c5 3d da 85 69 3d 24 60 37 3d
       0.12501872 0.09667782 0.057012416 0.04476942
000300 01 39 34 3d 1a 3d f5 3d 17 64 e4 3d 2e a8 14 3d
       0.043999676 0.11974545 0.11151903 0.0362932
000310 89 4a 3f 3e cc 63 2f 3e 0b d2 eb 3d f2 bd 61 3e
       0.18680777 0.17127913 0.11514672 0.22045115
000320 37 d6 19 3e 25 69 70 3d b6 b4 23 3e 6c f7 df 3d
       0.15023123 0.058694024 0.15986905 0.10935864
000330 12 61 5c 3e 95 58 0c 3e ac f8 0b 3e e6 21 72 3e
       0.21521404 0.13705666 0.1366908 0.23645744
000340 d1 22 00 3e ec 91 ff 3d 1f 5c de 3d a7 e0 a2 3d
       0.12513281 0.12479004 0.108574145 0.07953005
000350 42 68 7a 3d 74 b3 aa 3d df 42 77 3d 7e fc 14 3d
       0.061134584 0.08335009 0.060366508 0.036373608
000360 d9 40 9f 3d 37 81 d7 3c 87 ae 00 3e c3 32 8b 3d
       0.077760406 0.026306732 0.12566577 0.067967914
000370 cf 23 8d 3d 5b 21 8e 3d eb d7 8c 3d 37 a5 12 3c
       0.068915956 0.06939956 0.068771206 0.008950523
000380 07 53 05 3e 6f b2 19 3e 72 11 f6 3d 80 ec d1 3d
       0.13019954 0.15009473 0.12015046 0.10250187
000390 b0 09 c5 3d ba 96 8f 3c d8 2c 18 3d 5d ff 42 3d
       0.09620988 0.017527927 0.03715214 0.047606815
0003a0 b1 bb ae 3d 8d 70 0a 3e cc bc 8c 3d 6a 43 cd 3d
       0.08531893 0.13519497 0.06871948 0.10022624
0003b0 21 af 16 3d 15 d8 df 3c 25 0d 8c 3d 72 0d 99 3d
       0.03678811 0.027324716 0.068384446 0.074732676
0003c0 33 4d bc 3d 42 fb d7 3c 85 88 7f 3c cf 4b c4 3d
       0.09194412 0.026364926 0.015596514 0.09584772
0003d0 69 0d bc 3d 8c 61 0c 3e 24 a1 86 3d 84 a9 18 3e
       0.09182245 0.13709086 0.06573704 0.14908415
0003e0 e0 2b cb 3d 80 36 8a 3d ef da e7 3d dc a0 98 3c
       0.09920478 0.06748676 0.11321055 0.018631391
0003f0 cb 83 39 3e 02 0b 0e 3e 4b e2 ac 3d 98 6c 4a 3e
       0.18116681 0.13871387 0.084415995 0.19767988

conv_blocks.2.bias f4 [128]
000000 ce 05 98 bc 36 85 e9 3c a5 e6 20 3c 70 eb 43 3e
       -0.018557455 0.028505903 0.009820615 0.19132781
000010 6e 96 00 3e 5a 34 a7 3d cd 38 1c 3c ed 34 ad bc
       0.12557384 0.08164282 0.009535027 -0.021143401
000020 5c 60 55 3e 57 d8 1f 3e a6 7f 20 bd 3a 14 c5 3d
       0.2083754 0.15609871 -0.039184235 0.096229985
000030 c7 0d 1a 3e f9 ed 98 bc 5e 17 00 3e 9a 25 a2 3d
       0.15044318 -0.018668162 0.12508914 0.07917328
000040 7b eb ed 3d c2 1e 56 3e 63 ae 7a 3d 9a e3 81 3d
       0.1161718 0.2091017 0.061201464 0.0634224
000050 f8 d8 2b 3e da aa 25 3e e2 19 9c bc 9d cc f4 bc
       0.16781986 0.16178456 -0.01905531 -0.029882723
000060 20 0a 94 3b 0a 08 1b 3e cd 0e 46 3d 75 7d 0f 3d
       0.0045178086 0.15139785 0.04835396 0.035031755
000070 43 02 8d 3d ee 31 81 3d 0b 76 0c 3e 88 c0 cb 3c
       0.06885197 0.063083515 0.13716905 0.02487208
000080 b6 8f 16 3e c3 a6 af 3d be 22 2d 3e 1d 49 b5 3c
       0.14703259 0.08576729 0.16907784 0.02212959
000090 ba e1 dc 3d 1d 8e 46 3e b1 91 61 3e 5c fa f8 bc
       0.107852414 0.1939015 0.22028233 -0.030392818
0000a0 c5 23 0d 3e b0 e9 05 3b 61 fc 65 3e 72 49 07 3e
       0.13783176 0.0020433478 0.22459556 0.13211611
0000b0 f2 c2 1b 3e 08 ac 09 3e 0e 67 68 3e bd a4 60 3e
       0.15211084 0.13444531 0.22695562 0.21937843
0000c0 89 60 e4 3a eb 2c a5 bc 7c 33 b3 3b e6 09 30 3e
       0.0017423789 -0.02016302 0.005468784 0.17191276
0000d0 b4 5c 0a 3e e1 a0 68 3e 0d 59 ef 3d 41 78 c0 3d
       0.13511926 0.2271762 0.11686907 0.093979366
0000e0 0a ce 23 3e 3d a9 17 3e 21 b5 53 3d 38 b4 5d 3c
       0.15996566 0.14810653 0.05168641 0.013531737
0000f0 d9 12 37 3d fc 59 75 bc 7d c6 0c 3e f9 f7 4a 3d
       0.04469571 -0.014975067 0.13747592 0.04955289
000100 ed 56 12 3c 87 59 19 3d a7 8a 15 3e 31 32 0c 3e
       0.0089318575 0.037438896 0.14603673 0.13691022
000110 b3 b1 cd 3c 3d b4 6c 3c f7 55 ea 3c 56 37 87 3d
       0.025109148 0.014447269 0.028605444 0.06602351
000120 d4 1a 60 3e 23 d0 37 3e fc b0 3e bc eb 1c 91 3d
       0.21885234 0.17950492 -0.011638876 0.07085594
000130 5f b8 12 3e 38 a9 d5 3d 92 a1 45 3c d4 e2 45 3e
       0.14328144 0.104326665 0.012062447 0.1932481
000140 58 5f 23 3d ba d4 4c 3e 03 ae 27 3e e6 99 85 3d
       0.03988585 0.20003024 0.16374974 0.065234944
000150 9f 6d 6d 3e 29 8a f4 bb 3c 5e 25 3d d1 71 eb 3d
       0.23186348 -0.007462759 0.040373072 0.11496318
000160 0b b6 ed 3c b6 33 81 bc f6 1c 76 3e a1 09 2f 3e
       0.029017469 -0.015771728 0.24034485 0.17093517
000170 36 8e ec bc fb 96 38 3d 4f 66 2a 3c ff 70 e4 3b
       -0.028876405 0.04506586 0.010400369 0.006971478
000180 3b b4 1f 3e b4 2b ef bc 39 53 16 bd fd d1 94 bc
       0.15596096 -0.029195644 -0.03670046 -0.018166536
000190 f7 e5 52 bc 2f 72 fe 3c 01 f6 75 3c 14 f5 53 3e
       -0.012872211 0.031060306 0.015012265 0.20698959
0001a0 dc ea ea 3d dc fa 0d 3e e4 e3 ae bc 25 40 ab 38
       0.11470577 0.13865227 -0.021348901 8.165863e-05
0001b0 1a f9 33 3d 75 bc 24 3e 75 a8 e9 3c 47 d4 53 3e
       0.043938734 0.16087516 0.02852271 0.20686446
0001c0 9f 27 61 bb df 4a ff 3d a4 e8 b9 bb cf 7b 81 3c
       -0.0034355891 0.124654524 -0.005673485 0.015806107
0001d0 1b fd df bc 10 92 7b 3d d3 35 59 3e 1a c2 a3 bc
       -0.02734237 0.061418593 0.21211939 -0.019990016
0001e0 be 1f 79 3d e3 5b 93 3a 44 bf a8 3d 11 88 25 3c
       0.060821287 0.0011242594 0.08239606 0.010103242
0001f0 4d 53 1b 3d f1 f4 66 3e 52 3d af bc 14 76 e3 3d
       0.03792124 0.22554375 -0.021391544 0.11106506

conv_blocks.4.weight f4 [1, 128, 4]
000000 a3 cf 07 3e 10 dd ec 3d 12 75 44 3e 9e e6 41 3e
       0.13262801 0.11565602 0.19185284 0.1893563
000010 e5 2a 4b 3e 2b cc 22 3e c3 1a 43 3e 34 d9 1f 3e
       0.19840582 0.15898196 0.19053178 0.156102
000020 76 99 35 3e b3 42 34 3e 60 10 1d 3e bc 81 3c 3e
       0.17734322 0.17603569 0.15338278 0.18408865
000030 95 b8 88 bd bd f9 16 be 55 41 fd bd 79 3d 14 be
       -0.06675831 -0.14743705 -0.12365977 -0.14476575
000040 f6 6c c2 bd 6e c3 d7 bd 36 d3 0e be 70 30 07 be
       -0.09493439 -0.10535322 -0.13947758 -0.13202071
000050 4c ae 43 3e aa ad 33 3e e4 49 18 3e cc 37 1d 3e
       0.19109458 0.17546716 0.14871937 0.15353316
000060 a6 f2 30 3e 30 4d 11 3e 84 17 48 3e d3 80 fb 3d
       0.17280063 0.14189601 0.1954022 0.12280431
000070 10 c1 28 3e b4 cd 48 3e 5c 04 f2 3d 70 73 32 3e
       0.16479897 0.1960972 0.11817238 0.17426848
000080 fc 16 22 be 35 24 f3 bd d0 f3 01 be 3e 4d 14 be
       -0.1582908 -0.1187214 -0.12690663 -0.1448259
000090 d5 38 fd bd 15 f2 9d bd ba dd 0e be 23 16 0e be
       -0.123643555 -0.07712189 -0.1395177 -0.13875632
0000a0 39 7e 30 3e f3 71 23 3e f1 51 1d 3e ab b1 4a 3e
       0.1723565 0.15961437 0.1536329 0.19794337
0000b0 70 d6 9f bd 59 09 eb bd 81 65 bc bd 78 4d 08 be
       -0.078045726 -0.11476392 -0.09199048 -0.13310802
0000c0 16 7b cc bd ab 28 0c be 98 64 22 be db 31 c2 bd
       -0.09984414 -0.13687389 -0.15858686 -0.094821654
0000d0 5d 56 44 3e bf 45 16 3e 98 fe e9 3d a1 72 41 3e
       0.1917357 0.14675044 0.11425513 0.18891384
0000e0 4c 53 0d be a0 2e 9a bd d6 5e 1b be 6a 84 fe bd
       -0.13801306 -0.07528424 -0.15172896 -0.124276
0000f0 d4 b5 29 3e fb db 16 3e 95 04 08 3e 80 2d 4a 3e
       0.16573268 0.14732353 0.13282998 0.1974392
000100 18 02 18 be 64 98 d3 bd ff be 18 be 54 90 98 bd
       -0.14844549 -0.103318006 -0.14916609 -0.074494034
000110 c6 9c 06 be a7 97 18 be f0 39 09 be cd 09 c6 bd
       -0.13145742 -0.14901601 -0.13401008 -0.09669838
000120 5f 85 0b 3e 08 81 48 3e 34 26 24 3e ef 18 24 3e
       0.13625096 0.19580472 0.16030198 0.16025136
000130 85 85 07 3e 86 7d 4d 3e 58 21 d3 3d 34 26 4b 3e
       0.13234527 0.20067415 0.10309094 0.19838792
000140 9c 97 7a bd 96 de 06 be 83 1a 0e be c9 4c 0f be
       -0.061179742 -0.13170847 -0.13877301 -0.13994135
000150 1c 61 f9 bd f2 ae 0a be e8 ee 21 be a3 6d e5 bd
       -0.12176725 -0.13543299 -0.15813792 -0.11202552
000160 b1 62 53 3e 0e ff 0e 3e 70 a2 45 3e 3e 29 ce 3d
       0.20643117 0.13964483 0.19300246 0.1006646
000170 ee e3 0c 3e 64 5c 2f 3e 78 3a 25 3e cf 3a 2b 3e
       0.13758823 0.17125088 0.16135585 0.16721652
000180 36 fc 0e 3e ab 96 12 3e 35 12 2d 3e 7a 73 44 3e
       0.13963398 0.14315288 0.16901477 0.19184676
000190 d6 4b b3 bd ef 50 1b be 99 92 17 be ee d6 e8 bd
       -0.08754699 -0.15167592 -0.14802016 -0.113691196
0001a0 a8 0d df 3d 35 77 1e 3e ec 7b 31 3e 17 23 3b 3e
       0.108912766 0.15475161 0.17332429 0.18275104
0001b0 aa 32 34 3e 7e 9c 0f 3e b9 83 26 3e b0 4c 44 3e
       0.17597452 0.14024541 0.16261186 0.19169879
0001c0 bc e0 49 3e 84 15 02 3e 71 25 38 3e 29 d4 f3 3d
       0.19714636 0.1270352 0.17983033 0.11905701
0001d0 10 be 0b 3e d0 02 33 3e 29 76 44 3e 23 aa 29 3e
       0.13646722 0.17481542 0.191857 0.16568808
0001e0 39 18 06 be 22 02 df bd 6e e1 09 be 55 e9 f8 bd
       -0.13095178 -0.10889079 -0.13464901 -0.121538796
0001f0 ad 56 ec 3d 36 98 31 3e f6 cd 3c 3e 49 40 38 3e
       0.115399696 0.1734322 0.18437943 0.17993273
000200 84 bf 10 be c0 2d 1d be be 71 b3 bd 7a e8 09 be
       -0.14135557 -0.15349483 -0.08761929 -0.13467589
000210 74 ed 3b 3e af de 03 3e dc 01 4b 3e 79 39 00 3e
       0.183523 0.12877916 0.19824928 0.12521924
000220 63 f9 1d be 14 b3 12 be a6 bf b0 bd df 1b 94 bd
       -0.15427165 -0.14326125 -0.08630304 -0.072318785
000230 01 fb 39 3e fb 66 4c 3e 7e d7 e7 3d 16 8d 29 3e
       0.18162157 0.19961159 0.11320399 0.16557726
000240 aa 3a da bd 47 39 ff bd 1b ce 0d be c2 70 e8 bd
       -0.106557205 -0.12462097 -0.13848154 -0.11349632
000250 3c 6c e7 bd df d5 01 be 31 9a d5 bd 8d 57 1c be
       -0.11299941 -0.12679242 -0.104298 -0.15267773
000260 05 8a 11 be 39 6d 19 be 00 74 f5 bd f4 21 f8 bd
       -0.14212807 -0.14983071 -0.11985016 -0.12115851
000270 59 be 3a 3e 0d df ef 3d 5f 1e 33 3e ac 1d 2c 3e
       0.18236674 0.117124654 0.17492054 0.16808194
000280 8a 7a 25 be 70 d8 d3 bd 90 df 14 be e2 61 7c bd
       -0.16160026 -0.103440166 -0.14538407 -0.061616786
000290 6e ea 2d 3e 87 10 30 3e b1 86 28 3e 7a 79 11 3e
       0.16983959 0.17193805 0.1645763 0.14206496
0002a0 00 1c 25 be 87 6d 1b be 04 6c bb bd c7 bb f8 bd
       -0.16123962 -0.151785 -0.09151462 -0.12145191
0002b0 ec 73 00 be b8 79 db bd 17 4d bf bd e1 b4 ef bd
       -0.1254422 -0.107165754 -0.093408756 -0.11704422
0002c0 1c 35 95 bd ca c9 0d be c8 0a b8 bd 6d 97 06 be
       -0.072855204 -0.13846508 -0.08986431 -0.13143702
0002d0 ec cd 9b bd 75 3b e0 bd ef 69 e6 bd 32 8f 13 be
       -0.07607636 -0.109488405 -0.11250674 -0.14410093
0002e0 04 8a 22 be 13 d2 17 be f2 ce ce bd e6 5a 1e be
       -0.15872961 -0.1482623 -0.100980654 -0.15464363
0002f0 3a 4f 19 be d9 d0 21 be 0f d7 ff bd a4 f7 c3 bd
       -0.14971629 -0.15802325 -0.12492191 -0.09568718
000300 6f 2e 26 3e 70 05 22 3e 2c f7 2e 3e 7e e5 4d 3e
       0.1622865 0.15822387 0.17086476 0.20107076
000310 45 38 0f 3e c9 dd 1b 3e 74 db 40 3e 2c 23 2f 3e
       0.13986309 0.15221323 0.18833715 0.17103261
000320 b7 bb 37 3e e5 2c 27 3e 82 70 43 3e 64 ce e9 3d
       0.17942701 0.1632572 0.19085887 0.11416319
000330 03 d3 ef bd c5 95 05 be 94 41 17 be c0 ed 00 be
       -0.11710169 -0.13045414 -0.1477111 -0.12590694
000340 13 e0 df bd 5a 73 0e be 9e 95 b8 bd 77 0f 0f be
       -0.10931411 -0.1391119 -0.09012912 -0.13970743
000350 21 e6 fb bd b2 19 1b be 21 9f c4 bd 89 09 16 be
       -0.12299753 -0.1514652 -0.09600664 -0.14652075
000360 43 15 f9 bd 6c 6f 16 be d1 e4 c4 bd 10 99 01 be
       -0.121622585 -0.14690942 -0.09613956 -0.12656045
000370 f7 06 f7 bd 57 65 c6 bd 1f 52 02 be 08 a0 01 be
       -0.12061875 -0.09687298 -0.12726639 -0.12658703
000380 98 ea 11 be 74 66 e4 bd c6 26 b1 bd af d2 ce bd
       -0.14249647 -0.11152354 -0.086499736 -0.100987785
000390 03 21 08 be 65 d4 0b be fe 3f ec bd f0 4e d5 bd
       -0.13293843 -0.13655241 -0.11535643 -0.10415447
0003a0 b6 80 2f 3e 82 7b 18 3e 82 db 1d 3e 4c a7 0e 3e
       0.17138943 0.14890864 0.15415767 0.13931006
0003b0 90 e5 13 3e db de 2f 3e 09 a6 3e 3e be d3 fa 3d
       0.1444304 0.17174856 0.18618025 0.12247418
0003c0 65 d7 28 3e 2a 09 f1 3d 65 a0 42 3e 39 a8 29 3e
       0.16488416 0.11769326 0.19006498 0.16568078
0003d0 5e 68 2a 3e db 80 45 3e c2 6f 29 3e 5e 3a 0e 3e
       0.16641375 0.19287436 0.16546538 0.13889453
0003e0 56 cc 05 be 34 c9 1f be 61 ec fe bd 12 bb a7 bd
       -0.13066229 -0.15604097 -0.124474294 -0.08189978
0003f0 98 aa 40 3e 79 6c 0b 3e ca 9a 0e 3e 64 8e 11 3e
       0.18815076 0.13615598 0.13926235 0.14214474
