validation/feature_extractor_model/eeg_feature_extractor.pth (torch, 547304 bytes, 8 tensors)

features.0.weight f4 [64, 63, 3]
00000000: 34bd 5b3d 5d5b 703d 234d 99bc a87d 833d
00000010: 216e 96bc ceb3 4f3c ee79 1bbd 536a 253d
00000020: 03c0 7d3d e29d 66bd 51d6 773d aec8 333c
00000030: 7f1c 5a3d a528 1a3c 6d53 0d3d e186 3dbc
00000040: fa74 603d d051 1d3c 8dd6 0cbd 92d8 943c
00000050: ff4c 0abd bb59 14bc c1a4 f3bc e936 463d
00000060: 002c 6ebd 034e 0cbd 0b4e aebc fb47 35bd
00000070: f156 d73b 2a23 93bd 97cc 843d 6335 7fbd
00000080: a38f 643d 404e 3c3c 237e c4bc 28b0 363d
00000090: 12cb 293c 948d 6d3d a72d e93b 0042 c5bc
000000a0: 55dc 983c abc1 a7bc 5aa3 f73c b971 843d
000000b0: b952 2b3d a86e 05bd 1fa3 273d 6559 3e3c
000000c0: b551 123d bde5 3abd 7f8d 96bd fca1 f0bc
000000d0: c252 69bd cb31 6f3d 9b04 9d3c e342 eb3c
000000e0: 286d b23c 0986 0bbb bbd9 663d 1fa1 55bd
000000f0: 74fd 3d3b 95c9 4fbd 81b4 b03c 49e2 d8bc
00000100: 2e41 af3c ae43 7dbc e357 723d 60dc 33bd
00000110: ee57 34bd 056f 29bd 8d9c 893d 379c d53c
00000120: da44 8f3d 7bf7 75bd 3625 93bd d8b9 69bd
00000130: 703f 49bd 0a18 f03c 3788 c53c 10bc 703d
00000140: 61da 1fbd cf33 52bd 4f15 193d ed7b f1bc
00000150: 766a 333d 7d5b 8dbc 93ae 2e3d 92a7 75bd
00000160: 29e3 23bd 7854 a13c 3a52 553c 6565 a9bc
00000170: afb7 273d 6d5b 413d 16fb 5fbd ad53 26bd
00000180: 9e00 823d 6336 e0bc a4ed e8bc 6820 95bd
00000190: 45bc 33bd 80de 843c 01be 40bc 4013 5fbd
000001a0: 3ca2 163a 766f 55bd 65e3 82bd dd8a 2cbd
000001b0: b24d 88bd 1ad9 49bd a2ff 8e3d 65bf 583c
000001c0: 0ac6 b23c 84cd 8cbd a063 48bd 5330 cebc
000001d0: 48a4 2f3c 656c 83bd 11fd febc 46d4 2fbd
000001e0: 073c 01ba 2850 e1bc 326c afbb f4d7 4bbd
000001f0: 204f 4dbd e0b0 2dbd 3780 d4bc d1e5 6dbd
00000200: 08f6 773d f824 80bc 65bb 7c3d f420 b33c
00000210: 2162 80bd 9cb4 4a3d f3e1 a9bc 3746 e9bc
00000220: b595 7abd a427 96bd 90a1 a33c 3057 88bc
00000230: 55ca e13c 8b55 78bd d5dc 593d e938 5ebd
00000240: da14 72bc 3438 593c 1811 123d acd7 6b3d
00000250: 8ff6 853d 6d36 70bd 4d97 893c 6201 05bd
00000260: 0c63 11bc 95bd 66bd acfb 843d b7fd 5ebd
00000270: d6c8 1c3d 7039 ce3c 684f bf3c 84d4 29bd
00000280: f850 843d 5b57 763c cfdf 153c e12f 84bd
00000290: a8cc f43c 819e 4abc 4828 0cbd 7f7a 7f3d
000002a0: 9071 793c 26f3 27bd 23cf 18bd 2853 adbb
000002b0: edf4 203d c07e 98bc ea6b 2bbd 2fa5 cfbc
000002c0: 1111 61bd 0ec9 bc3c 9672 5b3d a222 91bd
000002d0: f213 683c 29b1 0e3d f1f6 2c3c 4275 e7bc
000002e0: aa8d 123d 08c9 143d c9f7 c33c 1703 83bc
000002f0: 59bf b7bc eaed 0e3c 888c 48bc b7c4 abbc
00000300: 5291 3e3d ce06 803d 9c76 eabb 6eda 96bc
00000310: 2299 c4ba 90f6 e1bb 8108 653c d0c3 853c
00000320: 4074 8fbd 8073 f0bc e009 6f3d ad30 d03c
00000330: f798 dabb f5ee 44bd 91dc 4abd d0ce 87bd
00000340: 33d6 ccbc d601 c03c 1c27 383d f38b 023d
00000350: 0a1b 88bd f86e 3cbd 21ce 62bc aa9e 8b3d
00000360: 94ad 1e3c d11e a6bc 6f7b e23c 99f2 ecbc
00000370: a21d 48bd 1e05 503d 084c 0cbd b695 81bc
00000380: 37bf 96bd fd54 423d db56 5c3d 9e17 ce3c
00000390: f0b5 53bd f9ed 94bd 7dc7 75bd 3439 5b3d
000003a0: a948 0c3d 2155 773d 0d52 163d 2c1d 8c3c
000003b0: 826a ebba b48f 67bd 5318 82bd 84fc 8dbd
000003c0: 3d9f eb3c e0c2 16bd 172b 83bc 8945 30bd
000003d0: b97b 70bc de33 58bd 247b 45bd f140 bc3c
000003e0: 3023 bebc 51ce 363d 0453 c2bc 97e2 5cbd
000003f0: 473f 5cbc dc09 14bd 20d4 c0bc 35be 8fbd
0.053647235 0.05868088 -0.01871354 0.064204514 -0.01836306 0.012677146 -0.037958078 0.0403846
0.061950695 -0.056302913 0.060507122 0.010973139 0.053249832 0.0094091045 0.03450339 -0.011567802
0.054799058 0.009602025 -0.0343843 0.018169675 -0.033764835 -0.009054597 -0.029741647 0.04839221
-0.05814743 -0.034254085 -0.021277448 -0.0442581 0.0065716435 -0.071844414 0.06484335 -0.062306773
0.055801045 0.011493266 -0.023985928 0.04460159 0.010363357 0.057996348 0.007116038 -0.024079323
0.01865975 -0.02047809 0.03022926 0.064670034 0.041826937 -0.032576233 0.04092705 0.011617993
0.035722453 -0.04562925 -0.07351207 -0.029374115 -0.05696369 0.058397096 0.019167235 0.028718418
0.021780565 -0.0021289608 0.056359988 -0.05215561 0.002899018 -0.050729353 0.021570446 -0.026475089
0.021393385 -0.015458031 0.059165847 -0.043911338 -0.04402917 -0.041365642 0.06719313 0.026075466
0.06995554 -0.06005047 -0.07184832 -0.057062 -0.049132764 0.029308338 0.024112804 0.0587731
-0.03902662 -0.05131894 0.037373837 -0.029478038 0.0438027 -0.01725554 0.042646956 -0.05997426
-0.04001156 0.019693598 0.013020093 -0.020678231 0.04094666 0.04720633 -0.054682814 -0.040607143
0.06347774 -0.027369684 -0.028433628 -0.072815716 -0.04388072 0.016219378 -0.01176405 -0.054461718
0.00057462207 -0.05210825 -0.06391028 -0.042124618 -0.06655444 -0.04927931 0.06982352 0.013229226
0.021822948 -0.068751365 -0.048923135 -0.025169527 0.01072032 -0.06417159 -0.03112653 -0.04292705
-0.0004929904 -0.027504042 -0.005353474 -0.049766496 -0.050124288 -0.04240501 -0.025940044 -0.058080498
0.060537368 -0.015642628 0.06170215 0.0218663 -0.062687166 0.04948865 -0.020737624 -0.028475864
-0.061177928 -0.073317796 0.0199745 -0.016643137 0.0275623 -0.060628455 0.053189117 -0.054253493
-0.014775479 0.013258029 0.035660833 0.057578728 0.06541168 -0.058645654 0.016795779 -0.032472022
-0.008873712 -0.056333143 0.06493315 -0.05444118 0.03827747 0.025173873 0.023353294 -0.041462436
0.06460756 0.015035476 0.009147598 -0.06454445 0.029882744 -0.012366892 -0.034218103 0.06237268
0.015224829 -0.04100337 -0.037306916 -0.005289454 0.03929608 -0.018615127 -0.04185096 -0.02534732
-0.054947916 0.02304509 0.053576075 -0.07086684 0.014164912 0.03483692 0.010556922 -0.028254155
0.035779633 0.03632453 0.023921864 -0.015992684 -0.022430109 0.008723715 -0.0122405365 -0.020967824
0.046525307 0.06251298 -0.0071552526 -0.018414702 -0.001499925 -0.0068958476 0.013979078 0.016328722
-0.07004595 -0.02935195 0.058359027 0.025413835 -0.006671067 -0.04807945 -0.049526755 -0.06631243
-0.025004482 0.023438375 0.044959173 0.031871747 -0.06645782 -0.046004266 -0.01384309 0.06817372
0.009684939 -0.020278366 0.027646748 -0.028924273 -0.048856385 0.05078613 -0.034252197 -0.015818458
-0.0736069 0.047444332 0.05379377 0.025157746 -0.05168718 -0.07271952 -0.0600047 0.05352135
0.03424898 0.06038392 0.036699343 0.017103754 -0.0017960819 -0.05653353 -0.06352296 -0.06932929
0.028762454 -0.03680694 -0.016011758 -0.043035064 -0.014677935 -0.05278384 -0.04821314 0.022980185
-0.023210138 0.044630352 -0.023721226 -0.05392703 -0.013442821 -0.036142215 -0.02353865 -0.07018701

features.0.bias f4 [64]
00000000: 8504 eb3b e0d9 80bd 5196 c23c a648 f8ba
00000010: 3e6c c2bb 452c 9b3b 8433 06bd a381 4a3d
00000020: 72f8 58bd e25c 00bb 4b84 763d 8f30 833c
00000030: f7a7 54bd 2b47 913d 8bc0 2fbd 98c6 f3bc
00000040: 9bdc 2f3d d97a 39bd 3aa0 253b ca2f dd3c
00000050: 806f 223d f9e1 36bd e723 8f3d 13ad 633d
00000060: ab99 f0bc 9826 813a 5eff dabc 23a0 17bd
00000070: 6917 813d 6a3b 583d 346f 993c d8f9 853d
00000080: c17d 8dbd d973 ad3b 63c2 14bd 46f7 1e3d
00000090: 24a8 b63b e4d2 66bd 10d1 283b d766 ed3c
000000a0: 0866 b9bc e836 debb d663 52bd 66af 813d
000000b0: 188b 8ebd 05d9 2bbd fb14 6dbd ff14 05bd
000000c0: 88ca 1fbd aeb8 b93c 9ac2 803d 91e1 1c3b
000000d0: 15ee 9c3c 6784 5f3d 30df 92bd 2133 7f3b
000000e0: 1ced 023d 363e 623c b688 02bd e1df c9bc
000000f0: 5d06 1abd 160b 953d 5dbd 06bd f7c0 36bc
0.0071721696 -0.06291556 0.023753317 -0.0018942549 -0.0059333136 0.004735502 -0.032763973 0.049440037
-0.05297131 -0.0019586612 0.06018476 0.016014365 -0.051917996 0.07093652 -0.042908233 -0.029757783
0.042934995 -0.045283172 0.0025272504 0.027000327 0.039657116 -0.044649098 0.0698927 0.05558498
-0.02937015 0.0009853421 -0.026733097 -0.037017953 0.06303293 0.052791037 0.018729784 0.065417945
-0.06908751 0.005293351 -0.036318194 0.038810037 0.005574243 -0.056353465 0.0025759377 0.028979702
-0.02263166 -0.0067814477 -0.051364742 0.06332283 -0.06960124 -0.041955013 -0.057881337 -0.032490727
-0.03901151 0.02267107 0.06287117 0.002393816 0.019156495 0.054569628 -0.07171476 0.0038940387
0.031964406 0.013808778 -0.03186866 -0.024642887 -0.037603725 0.07277505 -0.032895435 -0.011154405

features.2.weight f4 [128, 64, 3]
00000000: 427e f73a c9e7 59bd 59eb 3cbd 4db5 42bd
00000010: 25e3 813c 44ab 2dbd 33b4 60bd 3647 20bd
00000020: d09c c2bc 41c9 98bc 1801 3abd c8cf a13c
00000030: e168 07bc b667 4ebd fc0b 123d f862 8d3c
00000040: a30c 433c 2756 943d 06b5 52bc 6352 3e3d
00000050: 6de5 1dbd 9208 0dbd 0917 8c3c 97d5 1cbd
00000060: 937c f33c ca5c 8fbd a387 e1bc 61ac 943d
00000070: d944 31bb 6c4b 253d ac9b 883d 39f5 a0bc
00000080: 554c 80bc 70dc 21bc bc5d 0cbd 2477 4fba
00000090: 4ed0 113d 07f7 803d 8006 513d 8462 943d
000000a0: bf10 13bd b6c5 4cbd 2abd 8cbd 4539 363d
000000b0: aa96 0b3d 5c8e 84bc 3c78 763d 4936 5abd
000000c0: 8e57 51bc c057 02bb 7455 e53c 61a9 793d
000000d0: 3bdb 23bd 102d 953d e563 8f3d 5589 aa3c
000000e0: ad19 3abd ba4f c43c 10eb 833c d0fe cebc
000000f0: 1b6c 903d 9569 6bbd 1af7 c7bc 5247 e5bc
00000100: 3f73 95bc ae64 513d ea90 75bb 245e 223c
00000110: d1d6 84bd 511e 44bd 9c11 3a3d 3180 b7bc
00000120: 6743 c93c 91eb 65bd b502 21bd 67e5 0e3d
00000130: 4cc5 4f3d 2e12 a43b 809f 87bd d813 37bd
00000140: c960 cebc a2ff 053d cdd4 6bbd 3a79 41bd
00000150: 6cd0 92bd 2455 53bd 7519 543d b946 dfbc
00000160: eb53 89bc 5a13 5b3a 4343 5bbc db62 c4bc
00000170: f1ca d1ba 9c6f 14bd a57c 3c3d 6fbc 06bb
00000180: f29e 003d dbb3 053c 76ae 5c3d 0cd0 153d
00000190: 7371 13bd 7a94 79bc de4b 843c 6855 cdbc
000001a0: 8ded 42bd 810c 793d 8442 493d 678a 1bbd
000001b0: 57b3 903c f527 583d 621a 2ebd 66d1 4cbc
000001c0: 6a31 79bd c553 89bd 07ff 6d3d 86b5 c13c
000001d0: bcaa 42bd fd98 9ebb 3dd0 06bd 00a7 51bc
000001e0: 6b88 5dbc 4f0c d73c c2a1 6a3c 31d8 43bd
000001f0: 11e1 173d 671c b83b 14ee 18bd 3018 25bd
00000200: add1 ffba 1a9d c83c 6ee4 8abd bb8f 95bc
00000210: 976d 48bd e2d9 84bd a044 1a3d 75f0 bbbc
00000220: 1160 89bd 5ee4 abbc 90a3 1fbd 6f1d 233d
00000230: 4213 1bbc a9b8 33bd 458e f1bc 022b 94bc
00000240: ab3c 623d 0457 063c c9d8 5cbd bd12 9bbc
00000250: f6c7 893d 54c3 79bd cf8b e2bc edd9 803d
00000260: 766c f4bc bd76 5b3d 999c 41bd b38c 563d
00000270: ca25 443d b368 7ebc 9f7a 8ebd 407d d3bc
00000280: 961a 903c b836 d8bc 9f2f 65bd 46d8 7cbd
00000290: d509 143d e6de 593d 8070 d4bc 7eb1 7f3b
000002a0: 2548 31bd 210f 2b3d 89fb 40bd 5c28 20bd
000002b0: d94f f2bc 48bf 4cbc 17e4 263c 658b 8bbd
000002c0: a4dd e9bc 66fb f6bc 45de 56bc 44bc 0cbb
000002d0: af92 673b 69ff 193d 729d 20bd 0b3c 393b
000002e0: a940 883d 0424 3a3c 3fad 58bd c078 493d
000002f0: 6c7f 83bd 1fd0 fc3c 0115 7a3d c1b3 393c
00000300: 9b37 203d 158f 6a3d 0dd8 043d d56c b7bc
00000310: 41f2 6e3c e2b9 683d 88d8 883c 817b 6dbd
00000320: 090d 803d dbcf 8d3d 2543 2b3d 458e 1f3d
00000330: d057 233d 7378 31bd aca5 abbc bc2f 023d
00000340: 3188 973c b07d ff3c a2ca 14bb 1f36 8fbd
00000350: 412e 103d e4ff 37bd 825e 74bd 03d5 923d
00000360: 2acc 043d a96e 143d 0d77 ffbc 80ab dd3c
00000370: 2baa e93b 1e77 4e3d 2443 003c 716d 823d
00000380: 6de7 94bc a2a7 8b3d 9820 983d efa7 353c
00000390: e6a0 5bbd de51 a4ba cbdd 653d 3124 49bd
000003a0: ee54 d0bc d114 e03c 9905 5d3c 9ffd 873d
000003b0: 747b 2a3c 3f26 56ba 4124 123c 8eaa 7fbc
000003c0: 2035 8bbd 1d3b d9bc 3257 87bd 3fcd 553d
000003d0: f3b5 423b 6f83 e23b d90f a4bb a052 1abd
000003e0: 54be 54bd cd11 4bbc a6d3 b63c 1234 20bd
000003f0: 260c 38bd efcc 403d aa1f c6bc 766e 213d
0.0018882232 -0.053199563 -0.046122883 -0.047536183 0.015855381 -0.04239966 -0.05485935 -0.039130412
-0.023756415 -0.018650653 -0.0454112 0.019752398 -0.008264751 -0.050391875 0.03565596 0.017259106
0.011904868 0.07242995 -0.012860542 0.04646529 -0.038548876 -0.034432 0.017100828 -0.038289633
0.029722488 -0.0700012 -0.027530497 0.07259441 -0.0027049093 0.04035513 0.06670317 -0.019648181
-0.015661398 -0.009879217 -0.03426908 -0.00079141767 0.035599045 0.06297117 0.05103159 0.07245353
-0.035904642 -0.04999324 -0.06872018 0.04448821 0.03407923 -0.016181163 0.06017326 -0.053274427
-0.012777222 -0.001988873 0.027994849 0.060952548 -0.040003996 0.072839856 0.07001475 0.020817438
-0.045434643 0.023963798 0.016103297 -0.025267988 0.070518695 -0.057473738 -0.02440982 -0.02798811
-0.01824343 0.051121406 -0.0037470409 0.00991014 -0.064862855 -0.047880474 0.04542695 -0.022399994
0.024568273 -0.056132857 -0.039309222 0.034886744 0.050725266 0.00500705 -0.06622219 -0.04469666
-0.025192635 0.032714494 -0.05757599 -0.04723475 -0.071686596 -0.05159487 0.05178209 -0.027255403
-0.016763648 0.00083570706 -0.013382736 -0.02397292 -0.0016005916 -0.03623925 0.046017308 -0.0020559093
0.031401582 0.008160557 0.053877316 0.036575362 -0.035996865 -0.0152331535 0.016149458 -0.025065139
-0.047589827 0.06080294 0.0491357 -0.037973788 0.01766364 0.05277248 -0.04250563 -0.012501096
-0.06083814 -0.06705431 0.05810454 0.023646127 -0.047526106 -0.004840015 -0.032913435 -0.012796164
-0.013521294 0.026250986 0.014320793 -0.047813598 0.037079874 0.00561862 -0.037336424 -0.04030627
-0.0019517444 0.024488974 -0.06781851 -0.018257013 -0.048932638 -0.0648687 0.037663102 -0.022941807
-0.06707776 -0.020982917 -0.038974345 0.039822992 -0.009465041 -0.043877278 -0.029486785 -0.018086914
0.05523364 0.008199457 -0.05391768 -0.018929834 0.06727593 -0.060977295 -0.027654557 0.06291566
-0.029836874 0.053580035 -0.047268484 0.052380275 0.0478876 -0.015527892 -0.06956982 -0.02581656
0.017590802 -0.02639328 -0.05595362 -0.061729692 0.03614219 0.05319109 -0.02593255 0.0039015706
-0.043281693 0.041762475 -0.047114883 -0.03910099 -0.02957909 -0.012496777 0.010186217 -0.06813697
-0.02854807 -0.030149173 -0.013114517 -0.002147452 0.0035335233 0.037597094 -0.03921265 0.0028264548
0.06652958 0.011361126 -0.052899595 0.04918742 -0.06420788 0.030860959 0.061055187 0.011334361
0.03911553 0.05726536 0.032432605 -0.022390762 0.014584125 0.056817897 0.016704813 -0.05797911
0.06252486 0.06924411 0.04181208 0.03895404 0.039878666 -0.04332776 -0.020953022 0.031783804
0.018497558 0.031187862 -0.0022703786 -0.06992745 0.03520036 -0.04492177 -0.059660442 0.07169535
0.03242127 0.036238346 -0.031184698 0.027059317 0.0071308813 0.050406568 0.007828508 0.063685305
-0.018176759 0.06819083 0.07428092 0.011087402 -0.05362024 -0.0012536605 0.05611972 -0.04910678
-0.025431123 0.027353676 0.013490104 0.06640171 0.01040541 -0.0008169151 0.008919776 -0.015604628
-0.06797242 -0.026517445 -0.06608428 0.05219769 0.00297105 0.0069126408 -0.005006772 -0.037676454
-0.051939324 -0.012394381 0.022317719 -0.039112158 -0.04493346 0.04707044 -0.02418502 0.039411984

features.2.bias f4 [128]
00000000: 5a81 27ba 0006 f5bc 8bf4 90bd bbea 76bd
00000010: adf0 3b3d 47d4 50bd 3242 313d 8bdd 123d
00000020: 1c4c 373d d136 9e3c 1cd8 20bd bede 14bd
00000030: 7d62 913d 4b3e f3bc d799 36bd ce46 59bc
00000040: 44d2 063d 5367 65bd 3659 203d 34cb fe3c
00000050: 9c97 183c 343f a93c 13dd 6bbd 2801 863d
00000060: 9514 863d e8a5 adbc 4ceb 363d 1cb5 c3bb
00000070: 44fd 53bd a47b 033d 1c77 303d cd04 1e3d
00000080: 5fc5 543d 3a35 c23c 2b11 76bd 83c4 6ebc
00000090: c5dd 08bd a7f0 023d 55f2 92bc 3cac 833c
000000a0: 0c48 8bbb 8640 3c3d 634e 07bc 4392 593d
000000b0: ba3a 03bd f41a 723d d4ae 6a3d 5bbe 9dbc
000000c0: 7080 d9bc a8c9 22bd 110b 3cbd adc5 9ebc
000000d0: fabc 92bc d789 d2bc 2352 17bc 4b75 acbc
000000e0: db50 5fbd bca0 54bd 470b 37bc 5805 85bd
000000f0: 2fb3 f13c 37ce ef3c 70f6 e8bb 4251 633d
00000100: cd7a 07bd 4d79 fabb 9bee fbbc 49df 5c3d
00000110: 5675 10bc b3fc 11bd 7350 6f3d 8240 163d
00000120: f0c1 44bd 5f34 9ebc acbd 893d 1326 3dbd
00000130: dde0 74bd 3cef b93c 91ae b4bc 802d 25bd
00000140: 03cb f33b c59b 78bd 8cee 26bd 9a2b 7cbc
00000150: 2a8b cbbc 05dc c23c f4cb 683c a5f7 4bbc
00000160: be52 34bd 693d 893d dbe0 563d 73b4 e73c
00000170: 4ef8 323d 0422 573d 7ad5 4d3d a739 24bd
00000180: 7e01 973c 81c9 a5bc b048 0a3d f6a3 033d
00000190: 64dd 86bb 3e14 923d 80c3 69bb e8f2 253c
000001a0: 34e2 1bbd 6800 6f3d 6023 2b3d 58b9 033d
000001b0: f042 7c3d f868 5e3b 4333 1a3d f4ed 07bd
000001c0: 3edb 77bc 015f 443b ae82 693d 0d81 443d
000001d0: e272 2ebd 7134 3fbd 8584 233d 3aff 47bd
000001e0: 632b 913d 5582 943d 8636 81bd 999e 0ebd
000001f0: 25af 403d 7d4b 043b 6ea4 53bd f4fa 713d
-0.00063898193 -0.029910088 -0.07077893 -0.06028245 0.045883823 -0.050983693 0.04327602 0.03585581
0.044750318 0.019313248 -0.039268598 -0.036345236 0.07098863 -0.02969279 -0.044580307 -0.01326151
0.03291537 -0.05600674 0.03914758 0.031102754 0.00931349 0.02066002 -0.05758388 0.06543189
0.065468945 -0.021197274 0.04465799 -0.0059725177 -0.051755205 0.032100335 0.04308234 0.038578797
0.05194604 0.023707021 -0.060074966 -0.014573219 -0.03341462 0.031967785 -0.017937819 0.016073339
-0.004250532 0.04595997 -0.008258435 0.053118 -0.032038428 0.059107736 0.057295635 -0.019255808
-0.026550502 -0.039743096 -0.04590899 -0.019381369 -0.017912377 -0.025700493 -0.0092358915 -0.021052023
-0.05452047 -0.0519111 -0.011172122 -0.0649516 0.029504387 0.029273136 -0.0071094558 0.055497415
-0.033076096 -0.0076438547 -0.030753424 0.05392388 -0.008817038 -0.035641383 0.05842633 0.036682613
-0.048036516 -0.019312082 0.0672563 -0.04617889 -0.05978476 0.022697084 -0.022055896 -0.040326595
0.0074399724 -0.06069543 -0.04075484 -0.015391255 -0.024846632 0.023786554 0.014208782 -0.01244918
-0.04402422 0.06701166 0.052460533 0.028284287 0.043693833 0.052522674 0.050252415 -0.040094044
0.018433329 -0.020237686 0.033760726 0.032138787 -0.0041157473 0.07132767 -0.0035669506 0.010128714
-0.03805752 0.058349997 0.041781783 0.03215918 0.061587274 0.0033937078 0.037646543 -0.033185914
-0.015127955 0.0029963853 0.05700939 0.047974635 -0.04259003 -0.04668087 0.039921302 -0.048827387
0.070883535 0.07251421 -0.06309228 -0.03481922 0.04704203 0.0020186596 -0.051670484 0.05907722

features.4.weight f4 [256, 128, 3]
00000000: f29a a5bc 2f7a 23bd 0917 503d 3d01 37bd
00000010: c34d 41bc e02f 903c 680a 29bb 364f 50bd
00000020: 02de 363c 192c 993c ec2d 98bc b18c 423d
00000030: 002b 253d 5ded e73c 7727 12bd eb66 0ebd
00000040: 9054 2b3d 3c77 f73c 5b16 4ebc c2f4 3c3d
00000050: 05e7 3f3d 4a2b 40bb b425 423d ad66 58bc
00000060: 6897 ba3c 6aff 2f3d f272 6d3c 375b 2fb7
00000070: f0c9 e8bc 8985 43bc 59a9 10bd f1cb 25bd
00000080: 0d29 f6bc 276e 313a f7dc 02bd f5cf f9bc
00000090: 8a2a eabc 7fa3 0fbd 7f8f 2abd 5ec6 d73b
000000a0: 864f 2a3d 085c 463d dfaf 473d 178a 40bc
000000b0: de93 4fbd fe32 84bc 0f37 29bc c034 c6bc
000000c0: 3669 9d3c cbce 483d 3633 a6bc 3a1d 413d
000000d0: 8a31 50bd 687d e0bc 2d73 053d 53f7 833c
000000e0: bcd1 fc3c 61fb 16bd 2262 c7bc 9caa 30bc
000000f0: b780 3f3d ebc1 51bd b2a0 803c c048 0a3d
00000100: e496 c73c 03e2 f23c 7177 6cbb 0233 293c
00000110: 6dd9 9638 f12c e1bc 1888 053d cee7 50bd
00000120: cdff 07bc e51f 293d 8e57 1fbd 6dd7 9dbc
00000130: 7c5d 5abb 1099 4d3d 4fe9 273d ec91 ea3c
00000140: 5a47 983c a37a dcbb 128f 343d 6d09 9bbc
00000150: 675e dc3c 675b 06bd c91b 74b9 38ba f1bc
00000160: 5a28 383d 55b7 bebc 7adf 3fbd 43fd 043d
00000170: 6620 043c 80db 403d 0543 f3bb f7ee 123d
00000180: a7f1 f23b 38e5 283d 6210 3f3c a690 4e3c
00000190: 8404 d73c b518 ae3c fd75 183d a9bf c5bc
000001a0: d5ec 873b 55e5 37bd 9dad b3bc bc04 7bbb
000001b0: 9239 9abc eb6b f63c ef9a c5bc df0f fcbb
000001c0: b237 1bbd 0179 4bbd 9812 13bd 00af 40bd
000001d0: 2297 133d ed25 39bc fb3b 1a3d bdcf 983b
000001e0: 8582 1abd deb9 0fbd deb4 453c 460e 43bd
000001f0: c845 a4bc 3acc 643c 2556 6a3c 5c07 703c
00000200: 87d0 90bc b905 f1bc 272b 713c ff8a 963b
00000210: e107 c9bc 3dbf b63c ca4e 6cbc 3341 3f3d
00000220: 8e8b 5cbc 7ef9 d4bc 5308 2abc 58de dbbc
00000230: a5c2 bb3c dc2a 0e3b 8c1f ff3c 4480 2abd
00000240: 2b00 803c 10fa 403d 1d0c 32bd 01f0 543c
00000250: 172c 8dbc edbe c5bc 016e 24bd cc11 abbb
00000260: da0a 083c a705 223d 6b3d 11bd 0ddb b33c
00000270: c278 b73c fdf7 40bd c7a2 bfbc cbda 303d
00000280: e62a 1c3c 5272 33bd fdfa 33bd f158 f5bc
00000290: 71d7 17bc 8195 17bd 8b98 33bd 9e7b 093d
000002a0: 375d 4f3c 303d c43b f31c 02bd d263 e0bc
000002b0: 49ca 883b a349 1f3d 1b6b e53c 2dc7 26bd
000002c0: cfc9 11bd 11d3 3abd 9d0a 313d 5743 e83c
000002d0: 7523 3a3d 0d56 ffbc 52b6 263c b6d1 b5bc
000002e0: f931 e5bc 7592 cabc 82d1 4abd 9405 65bc
000002f0: 5f13 073c 4a63 5b3c 960c 1f3d 8154 00bc
00000300: 5847 143d 27be 02bd ecef 13bd 9559 ca3b
00000310: 00cc 7fbc b503 093d 5bc5 083c dc3e 23bd
00000320: 91bd 733c 73a6 c13b b780 c13c f82d 39bd
00000330: e1e6 f9bb 507c 313d 0ef0 133d c419 4fbd
00000340: 5c03 3fbd d46a 3ebb 2dbc 463d ecc7 4fba
00000350: 2899 453d b807 26bd cd68 0dbd 2b8d b73c
00000360: aa9d 7e3c 8250 18bd 3821 d03b 63ad 303d
00000370: 67f5 4b3c 12b4 c3bc 1433 723c a37e 34bd
00000380: 0fd9 b83c 78d2 1e3c fe46 3b3c 4d53 e1bc
00000390: ba86 4e3c 46e4 0ebc 0aa0 40bd 2b2a 38bd
000003a0: a82e 4d3d 6725 cb3c 32ce 0c3d 8b7f 0b3d
000003b0: 9821 e73c 2aa8 a63c a746 1bbd a99b 3dbd
000003c0: 02b7 593c 41b4 dc3c 3462 98ba 2770 cb3c
000003d0: 672b 3d3c e56e a2bc d929 b039 dabb 9236
000003e0: 8d33 9bbb 5b6b 463d 46da 3dbd bc04 55bd
000003f0: aa9f 513b 03fa a53b 740f 08bd 2262 a53c
-0.020215485 -0.039911445 0.050803218 -0.044678915 -0.011798325 0.017600954 -0.0025793556 -0.05085679
0.011161329 0.018697785 -0.018576585 0.047497455 0.04032421 0.028311426 -0.035682168 -0.03476612
0.041828692 0.030208223 -0.012578572 0.046131857 0.046851177 -0.0029322677 0.047399238 -0.013208074
0.022777274 0.04296819 0.014492737 -1.045205e-05 -0.028416604 -0.011933693 -0.035317753 -0.040477697
-0.030048871 0.0006768428 -0.03194901 -0.03049467 -0.028584737 -0.03506803 -0.041640755 0.0065849265
0.041579746 0.04842761 0.048751708 -0.011751673 -0.050678127 -0.016137596 -0.010328068 -0.024195075
0.019215208 0.04902534 -0.020288091 0.047147013 -0.050828494 -0.027403548 0.032580543 0.016109144
0.030861728 -0.036860827 -0.024338786 -0.010782864 0.04675361 -0.051210325 0.015701625 0.033760786
0.024363942 0.029648786 -0.0036081935 0.010327103 7.193056e-05 -0.02748725 0.032600492 -0.051002316
-0.008300734 0.041290183 -0.038901858 -0.019267762 -0.0033319881 0.0501948 0.040993985 0.028634034
0.01858871 -0.0067284866 0.044081755 -0.018925393 0.026900483 -0.03280201 -0.00023280004 -0.029507741
0.044960357 -0.023280779 -0.046843983 0.03246809 0.008064365 0.04708433 -0.007423761 0.035872426
0.007414061 0.041234225 0.011661621 0.012607729 0.02624727 0.021252016 0.037221897 -0.024139242
0.0041481056 -0.044896442 -0.021933371 -0.0038302382 -0.01882628 0.030080756 -0.02412173 -0.0076923217
-0.037894912 -0.049675945 -0.035906404 -0.047041893 0.036032803 -0.011300546 0.037654858 0.004663436
-0.03772213 -0.035089366 0.012067048 -0.047621034 -0.020052806 0.013964707 0.014302765 0.014650192
-0.017677559 -0.029421674 0.014719761 0.0045942063 -0.02453989 0.022307986 -0.014423082 0.04669304
-0.013461007 -0.025997873 -0.010377961 -0.02683942 0.022919962 0.0021693027 0.031142972 -0.04162623
0.01562508 0.04711348 -0.043468583 0.0129966745 -0.017232938 -0.024138892 -0.04014397 -0.0052206274
0.008303368 0.03955617 -0.035458963 0.021955037 0.022396449 -0.0471115 -0.023393048 0.043177407
0.009531712 -0.043810196 -0.043940533 -0.029949637 -0.009267674 -0.037007812 -0.04384665 0.033565156
0.0126565015 0.0059887394 -0.03176589 -0.027391348 0.004174505 0.038888585 0.028005173 -0.040717293
-0.03559285 -0.045611445 0.043223012 0.028352423 0.04544397 -0.031168962 0.0101753045 -0.022194725
-0.02797793 -0.02472804 -0.04951621 -0.013978381 0.0082443645 0.013390372 0.038830362 -0.007832647
0.03620085 -0.031919625 -0.03611748 0.00617523 -0.015612602 0.0334508 0.008347834 -0.03985487
0.014876739 0.005909735 0.023620946 -0.045209855 -0.0076264 0.043331444 0.036117606 -0.05056168
-0.046634063 -0.0029055374 0.048519302 -0.0007926214 0.048241764 -0.040534705 -0.034523774 0.022406181
0.01554052 -0.037186153 0.0063516162 0.043134104 0.012448645 -0.023889575 0.014782686 -0.044066083
0.02256444 0.009693734 0.0114305 -0.027505541 0.0126053635 -0.008721417 -0.047027625 -0.04496209
0.050093323 0.024798108 0.03437633 0.03405718 0.028214261 0.020343859 -0.037909176 -0.046291027
0.013288261 0.02694142 -0.0011625946 0.024833752 0.011545992 -0.01982827 0.00033600515 4.373008e-06
-0.00473637 0.048442226 -0.04635074 -0.05200647 0.0031986036 0.005065204 -0.033217862 0.020188395

features.4.bias f4 [256]
00000000: dfa1 c83c f69e 42bd cb34 193d 8863 78bc
00000010: 74b0 323d f553 d2bc cef3 293d f414 be3c
00000020: 3bdd 2ebd ae8c 3b3d 2201 c13b caf2 89bc
00000030: 5f8a 1d3d a5d2 a3bc fe5f 4ebd cb15 463d
00000040: de6a 063b 6faf 1f3d 8bd0 3dbd 74f7 a4bb
00000050: 2516 053d 2894 8d3a 4ec1 3bbd 7ff2 8abc
00000060: f573 26bd 5494 e13c de92 4bbd 8594 e6bb
00000070: 00b3 213d 344e 34bb d7ed 3c3d adb3 f73c
00000080: 2cc1 44bd a1da 51bd 62d9 4ebd 6194 a6bc
00000090: afb0 3cbd a511 8f3c 1f6f 27bd 0921 38bd
000000a0: ac01 333d ab72 d2bb 5dbc 473c 82fc 98bc
000000b0: 22ef ddbc 37cf 0f3d ca2a 803c 7e25 5f3c
000000c0: 3240 023d 99f8 a4bc a4f1 1b3d 7cbe 3bbd
000000d0: af2a eebc 86ad 2bbc ff4f d9bc 0c99 023b
000000e0: 24ad f7ba 6472 e03c a9ce 4f3d 45d9 3c3d
000000f0: dd79 03bd 73f2 3bbd 1b34 2c3d 189f 83bc
00000100: 7116 11bd e279 09bd 48c8 993c fbbe 163d
00000110: d21a babc 62ff 983c bbc0 f13c 69bf 21bd
00000120: 1631 b63c 80ba e8bb 49f2 2fbd 0551 eebc
00000130: d919 4b3d 4ca9 dd3c f6bd 473d 0431 043d
00000140: 8386 07bd 640b fe3c 4200 2e3d f43d 943c
00000150: 471a 183d ba2b 4bbb 8355 b6bc 018f 9cba
00000160: 4c9f 0cbd d04b 07bd 2b7e 53bb 4b69 543b
00000170: b7e6 4dbc 5be6 f3bc 6bd3 993c e3fa 6f3a
00000180: 24d7 1bbd 10e3 403d bf95 063d b0d8 803b
00000190: 0a31 5a3c 9b10 5b3c 140d e63c 9cb9 8e3c
000001a0: 9069 e53b f3d8 43bd 5aab 14bb 056f 25bc
000001b0: 06af a7ba 83f1 cfbc 4b7d 143d 8596 06bd
000001c0: 8e19 6ebc da33 f1bc a51a 15bd 9774 423d
000001d0: eddd 3e3d 105d 1f3d d871 a83c 6bad 3b3c
000001e0: dd58 de3c c1d6 09bd 32b5 6fbc 7d09 4639
000001f0: 8f3c 9fbb 45dc b6bc 9b59 a2bc 4bff 943b
00000200: d2b8 e5bc 67fe 99bc 3d3a 4c3d 82fd 243d
00000210: bd01 10bd f1ec 3d3d 102c 343d 48c0 a23a
00000220: 2cef 68bc 058c 443d 5340 423d f908 38bd
00000230: 229b 4e3b 8033 e6bc e61e 2abd 9d2b 053d
00000240: 9bc8 e73c 6340 31bd cd4b 01bd 2fb4 e33c
00000250: 030c 4b3d d2ce 1e3d 1d54 98bc 01c8 37bd
00000260: ec05 853c 35d8 24bd 640f 1c3d 1851 c2bc
00000270: d195 0bbd 4a3e a13c 03a4 f6bc a640 dbbc
00000280: cd84 68bc 727e 323d d368 3c3d d833 bf3b
00000290: 507b d33c 4fee 22bd ba1b b03c c261 01bd
000002a0: 391b 213d 87cd 013d 9efd 11bc 747a ca3c
000002b0: 416a 26bd a6f3 4b3d efc7 1cbc 8395 e03b
000002c0: 4dca a13c b14a 493d 4434 5f3c f054 3c3b
000002d0: 47aa 46bd a642 3abd 1c1d c4bc af66 e73c
000002e0: 6267 433d de65 28bd 3287 1dbc 00b1 2c3d
000002f0: 4358 1c39 494d faba 1c77 44bc 2173 8cbb
00000300: a3ed 52bd 1666 f6bc 00b3 b9bb 1b43 403d
00000310: d202 213d d60b 1b3d 6043 8e3c 4248 6dbc
00000320: fd5e dd3b 8a0b b03c ef9e 44bc a1ca da3c
00000330: 441d 0fbd 5755 37bd 4fd8 4cbc 6eb3 41bc
00000340: bc02 2dbd 41c4 4d3c 79cf 173a 55bb 4abd
00000350: 3734 4a3d 800d 0e3c 7006 823c 6848 2a3d
00000360: d9a2 76bc 8b26 0a3c 65cb b03c 6b4d 4a3d
00000370: bdb8 22bd a09c 06bd 30d4 9a3c 6fe3 873c
00000380: 59c6 f93c fb19 ef3b d201 99bc 44e4 02bd
00000390: d545 3abd 356f 4cbd 19ae 98bb cd74 553c
000003a0: d56f 19bb e78b 2ebc 57b3 2f3d a45f b5bc
000003b0: 1bb3 0cbd c764 22bd a3b4 a03c b068 ac3c
000003c0: 2835 4a3c da00 833b 99f2 623c 7a46 033d
000003d0: acf2 4c3c 6c1f fc3c b003 2ebd 58ec 87bc
000003e0: 6598 3abc 6843 463c fbed 1abd 87af 84bc
000003f0: 3901 3abd a3f8 00bc addd e3bc 8c2a d13c
0.024491249 -0.04751488 0.037403863 -0.015160449 0.04362531 -0.0256748 0.041492276 0.02320335
-0.04269145 0.04578846 0.0058900276 -0.016839404 0.03846204 -0.019997904 -0.050384514 0.048360627
0.0020510475 0.038985666 -0.04634146 -0.0050343815 0.03249182 0.00108016 -0.045838647 -0.016961334
-0.04063793 0.027536549 -0.04970061 -0.007036748 0.03947735 -0.0027512433 0.04612526 0.030237043
-0.048035786 -0.05123389 -0.05050028 -0.020334424 -0.046066936 0.017464468 -0.040877458 -0.04495338
0.043702766 -0.006422361 0.012190905 -0.018675093 -0.027091566 0.035109725 0.015645403 0.013619779
0.031799503 -0.020138072 0.038072243 -0.045835957 -0.029073087 -0.010478383 -0.026527403 0.0019927649
-0.0018896204 0.027398296 0.050734196 0.046105642 -0.03209864 -0.045885514 0.04204188 -0.016067073
-0.035421792 -0.033563502 0.01877226 0.036803227 -0.022717867 0.018676464 0.029510846 -0.039489184
0.022240203 -0.0071023107 -0.04295567 -0.029091367 0.049585197 0.027058266 0.048765145 0.032273307
-0.033087265 0.03101129 0.042480715 0.018095948 0.037134435 -0.0031001405 -0.022257572 -0.0011944474
-0.034331605 -0.033031285 -0.0032271247 0.0032411392 -0.012567214 -0.029772928 0.01877757 0.00091545115
-0.03804697 0.047091544 0.032857653 0.003932081 0.013317356 0.013370658 0.028082408 0.01742249
0.0070011094 -0.04781432 -0.0022685141 -0.01009727 -0.001279325 -0.025383716 0.0362523 -0.03285839
-0.01453246 -0.02944367 -0.036402363 0.04747447 0.046598364 0.03890711 0.020562097 0.01145492
0.027141983 -0.03365207 -0.014630603 0.00018886286 -0.004859514 -0.02232183 -0.019818118 0.004547035
-0.02804223 -0.018798066 0.049860228 0.040280826 -0.035157908 0.046368543 0.043987334 0.0012416923
-0.014217179 0.047985096 0.047424626 -0.044930432 0.0031525572 -0.028100729 -0.041533373 0.032512296
0.028293898 -0.043274295 -0.03156643 0.02779588 0.049572002 0.038771458 -0.018594796 -0.044868473
0.016238175 -0.040245254 0.038100615 -0.02372031 -0.034078423 0.019683022 -0.030107504 -0.026764225
-0.014191818 0.04357762 0.045998406 0.0058350377 0.025815636 -0.03977805 0.021497596 -0.03158737
0.039332602 0.031690147 -0.008910565 0.024716593 -0.040628675 0.049792908 -0.009569152 0.0068537607
0.019749785 0.049143497 0.013623301 0.002873715 -0.048502233 -0.045473717 -0.023939662 0.028247206
0.047706015 -0.041112773 -0.009614753 0.042160988 0.000149102 -0.0019096519 -0.0119912885 -0.0042861854
-0.05149616 -0.030077975 -0.0056670904 0.046938997 0.03930933 0.037853085 0.017366111 -0.01448256
0.0067557083 0.021489877 -0.012000783 0.02670795 -0.03494002 -0.04475912 -0.012502744 -0.0118225645
-0.042238936 0.012558998 0.00057911087 -0.04949506 0.049366202 0.008670211 0.01587221 0.04157296
-0.015053474 0.008432041 0.021581361 0.049390238 -0.03972696 -0.032864213 0.018900007 0.016587941
0.030490087 0.0072967983 -0.018677626 -0.031955972 -0.045476753 -0.049910743 -0.004659426 0.013028336
-0.0023412604 -0.0106534725 0.04289564 -0.022140332 -0.034350496 -0.03964689 0.019617384 0.021046013
0.012341775 0.0039979042 0.013851785 0.032049634 0.012509029 0.030776702 -0.042483985 -0.01659219
-0.011388873 0.012101032 -0.037824612 -0.01619698 -0.045411322 -0.00787178 -0.027815664 0.025532983

classifier.1.weight f4 [2, 256]
00000000: ee5a 553d 03ef e1bb b5a3 573d 1fd4 663d
00000010: aa7e ac3a 3c94 933c 3c85 26bc d034 09bb
00000020: bba7 9dbc 65f4 93bc 7483 58bd bd3e 14bd
00000030: f679 e9bc 00fe debc f3e4 083c 9220 75bd
00000040: 055d 283d 610c 5abd 33e8 343d 9d39 15bd
00000050: 70fb 6cbd 21d4 3f3c 8a1d 81bd b401 1abd
00000060: 210f 92bc ef47 7ebd 6b91 5fbd 0e0a 6dbd
00000070: 00e7 2bbb 24ba 36bd 26f4 ee3c c0a9 49bd
00000080: b7ef ca3c 487e bd3c cd1d 7d3d 9ec8 5ebd
00000090: 2242 dd3b 9bbe 983c a464 1dbd f054 9abc
000000a0: 7030 fb3c 2f10 0bbd 2a1c eb3a 3ff8 44bd
000000b0: 4660 49bd 1a68 073d 4863 71bd 625d 74bd
000000c0: c6f7 6a3d b59b ffbb 84d5 aebc 21c3 823d
000000d0: dff3 e3bc 160b 0db9 8d93 573d 39c9 363d
000000e0: 3403 593d 1f56 68bd b281 7cbd 58c6 febc
000000f0: 2197 06bd 3538 593d 02a6 81b9 cfca 183c
00000100: 4dbc 55bd 1544 e2bc 02ff 6d3d 06b7 88bc
00000110: 2733 193d d6fd c2bc c27e 1a3d e05a 18bd
00000120: fa6e d13c c410 d6bc f788 efbb 2e2b 493d
00000130: b271 6dbd d94f 2bbd c340 153d 74b7 58bc
00000140: 14ed 633d c499 9cbc 6546 b83c fe80 2d3d
00000150: 5a6f 79bc 83e9 973c 400e 043d 0ac5 d8bc
00000160: 9683 00bc 0cc5 16bd 0c65 7d3d 0dc5 943c
00000170: 9af6 c8bc 30e9 42bd e657 473d f0f9 453d
00000180: 3ae5 4a3c 7e09 debc 0b9f 1bbd 5fe7 613d
00000190: c152 65bb 78ef 2abd 4a81 abbc 4453 723c
000001a0: 1f54 7c3d c306 433d acea 27bd 89b0 78bc
000001b0: 45c8 3f3c 0b89 463b 988d e53c 6302 80bd
000001c0: 39f1 4dbd 2971 64bd e8ca 623d 591b 89b9
000001d0: 4c0e dbba cc6a f2bb 41f0 423d db62 07bd
000001e0: 0348 783d 47bd 003d 8cc0 6fbd 7a54 273d
000001f0: 2622 713d 1e19 8abc e486 8abc e048 1e3d
00000200: 7836 283c 6097 3f3d d323 a43a 9002 a33b
00000210: a062 21bd b363 08bd 42c6 0cbd e0d9 c33c
00000220: 6502 073d bdaa 65bc b1d8 373b 3fe2 2ebd
00000230: 3843 cc3c 52d0 b7bc c0ba 373c 322f c73c
00000240: 9c72 40bd 782b 373d 774a 213d b632 613d
00000250: a83b 713c 5ce4 f4bc d519 42bd ddd5 693c
00000260: 4b63 82bd 4f35 dabb ca0a a23c c403 b73c
00000270: 2da3 eabc e178 863c 9340 0f3d 1e3e ea3b
00000280: 7458 37bd f537 e8bc bad0 13bd f16e 47bc
00000290: 221f 33bc 79dd 22bd 6ae7 233d b3c8 41bd
000002a0: 8328 abbc 5b1a e43c 3b7a 6b3b 4df5 a1bc
000002b0: fba8 743c 1ef7 e03c fa66 773c b264 71bd
000002c0: db4e 6ebd f14b 113c 78c2 a43c 5f3a 623d
000002d0: 2cdc d73c 2b28 4dbc 3f9a 3bbc c078 a9bc
000002e0: 75da 963a de92 963c 1fb4 313b 9eec 43bd
000002f0: be5b 73bd 79cf 793d 4fad 2cbc 9f14 43bd
00000300: 2101 3a3c 5035 1cbd 8ee2 4c3d ba27 403d
00000310: d581 b4bc f9db 33bd 9dcd 8abc 41f7 723d
00000320: 7d92 6fbd 4a4f 2d3d bec6 2f3d f0f9 f5bc
00000330: b015 213d 32d0 a0bc 4db6 39bc 0503 fa3c
00000340: 5beb 0cbd 9087 d83b bdf3 d9bc 465f 4c3d
00000350: 3698 653d 1836 16bd 6309 ef3a 098b 88bc
00000360: 8d5a 6e3c 6c3c de3c d5f7 e6bc bb35 873c
00000370: 308e 673d 13dd 0cbc 219e 84bc 2d24 3fbd
00000380: c3dc 5dbc c3ec f4bb 965a 073d b109 a43c
00000390: cd56 e13c a3d2 1a3d f96d 8d3b 7bf8 093b
000003a0: db38 59bc 5b9f 4abd 6f31 6cbd 06d5 7fbc
000003b0: 0388 8b3c 8510 09bd 5e2e 2cbd 70e4 c3bc
000003c0: b919 a7bb 6a9d b9bc a5c6 e83c 9acf 633d
000003d0: 784b c63c 16b0 27bc d1e2 0b3d cc71 423d
000003e0: ffc6 b83c 920a 603d eeda 293b a47f ccbc
000003f0: 97c5 a83c 4d42 033d adfa f4bc 9851 31bc
0.05208867 -0.0068949475 0.052646358 0.05635464 0.0013160307 0.01801502 -0.0101636015 -0.002093602
-0.01924502 -0.018060872 -0.05285974 -0.036192644 -0.028500538 -0.027220726 0.008355367 -0.059845515
0.041104335 -0.05323446 0.044166755 -0.036431897 -0.057856977 0.01170829 -0.06304462 -0.03759928
-0.01782948 -0.06208032 -0.05458204 -0.057870917 -0.0026230216 -0.04461111 0.029169153 -0.04923415
0.024772508 0.023131505 0.061796 -0.054390542 0.0067522684 0.018645575 -0.038426057 -0.01883933
0.030662745 -0.03395098 0.0017937471 -0.04808831 -0.04916408 0.033058263 -0.058932573 -0.05965937
0.0573652 -0.007800544 -0.021342047 0.06384874 -0.027826248 -0.00013450938 0.05263095 0.044625495
0.05298157 -0.056722756 -0.061647125 -0.031100437 -0.03285897 0.05303212 -0.00024728483 0.009325697
-0.05218153 -0.027620355 0.058104523 -0.016688835 0.0374023 -0.023802679 0.037718542 -0.03719604
0.025565613 -0.026131041 -0.0073100287 0.049113445 -0.057969756 -0.041824196 0.036438715 -0.013227332
0.055646017 -0.01911629 0.022494504 0.042359345 -0.015224302 0.018543964 0.032240152 -0.026461143
-0.0078438725 -0.036809012 0.061863944 0.018160367 -0.024531651 -0.047585666 0.04866781 0.048334062
0.012383753 -0.027104136 -0.037993472 0.055152293 -0.0034991952 -0.04173228 -0.020935673 0.01479036
0.06160366 0.04761387 -0.040995285 -0.015178808 0.011705463 0.0030294086 0.028021619 -0.06250455
-0.050278876 -0.05577198 0.055369288 -0.00026151052 -0.0016712635 -0.007397985 0.047592405 -0.03305326
0.06061555 0.03143051 -0.058533236 0.040852048 0.058870457 -0.01685768 -0.016910024 0.038643718
0.010266893 0.04677522 0.0012522883 0.0049746707 -0.039400697 -0.033298206 -0.03436876 0.023907602
0.032961268 -0.014017758 0.0028052742 -0.042696234 0.024934396 -0.022438202 0.011213958 0.024314497
-0.0469843 0.04471919 0.039377656 0.054980002 0.014723696 -0.029894046 -0.047387917 0.01427218
-0.06366595 -0.006659187 0.019780535 0.022340663 -0.028642261 0.016415061 0.034973692 0.007148518
-0.04476209 -0.028346995 -0.03608773 -0.012172447 -0.010932716 -0.039761994 0.040015616 -0.047310542
-0.02089334 0.027844599 0.003593101 -0.019770289 0.014932866 0.027461585 0.015100235 -0.05893392
-0.05818067 0.0088682035 0.020112261 0.05523145 0.026350103 -0.012521784 -0.011450349 -0.02068746
0.0011509197 0.018380579 0.0027115417 -0.047833078 -0.059413664 0.060988877 -0.010539367 -0.047627088
0.011352808 -0.03813678 0.050020747 0.046912886 -0.022034565 -0.043910954 -0.016943747 0.05931783
-0.05848931 0.042311944 0.042914145 -0.030026406 0.039327323 -0.019630525 -0.011334968 0.030519018
-0.03440414 0.006607957 -0.026605481 0.049895547 0.056053363 -0.03667268 0.001823705 -0.01666786
0.014547956 0.02712842 -0.028194347 0.016505113 0.056532085 -0.00859763 -0.016188683 -0.04666536
-0.013541403 -0.0074745133 0.033045374 0.020024152 0.02750721 0.037798535 0.0043160883 0.0021052647
-0.013258184 -0.04946838 -0.05766433 -0.015614754 0.017032629 -0.03346302 -0.042036407 -0.023912638
-0.005099502 -0.022658069 0.028415034 0.055617906 0.024205908 -0.010234853 0.034151856 0.047471806
0.022555826 0.05469758 0.0025917846 -0.024963208 0.02060203 0.03204565 -0.029904688 -0.010822676

classifier.1.bias f4 [2]
00000000: 074e 323d a135 6fbd
0.043531444 -0.058400754
