models/best_discriminator.pth (torch, 731332 bytes, 7 tensors)

conv_blocks.0.weight f4 [64, 65, 4]
000000 e7 b3 e6 3a a6 d5 36 bc fb f4 93 ba c2 d9 1f 3b
       0.0017601222 -0.011159336 -0.001128822 0.0024391268
000010 a4 3d 54 bc ab c7 c9 bc c0 81 a4 3c 06 06 65 3c
       -0.012954149 -0.024631342 0.0200814 0.013978487
000020 d0 84 32 bd 77 d3 81 bc be a8 4a 3d ee f2 20 3d
       -0.04358369 -0.015847905 0.04947733 0.039294176
000030 4b d2 94 bd ca 60 80 bd db 7c 2f bd a5 21 01 3b
       -0.07266673 -0.06268461 -0.04284368 0.0019703892
000040 82 ce ce bd 4e 16 78 bd dd d7 27 bd 56 c7 0e 3d
       -0.10097982 -0.060568146 -0.040977348 0.03485807
000050 e9 8a b8 bd a4 0e d3 bc 6c 58 6b 3d 23 1e 9d 3d
       -0.0901087 -0.025763817 0.057457373 0.07671764
000060 33 ac 20 be 6f d7 2e bd c7 c6 ed 3d 6e d3 03 3e
       -0.15690689 -0.042685922 0.116101794 0.12873623
000070 c9 3d de bd cd 5e 09 bb ab f7 1e 3e 47 c0 34 3e
       -0.10851628 -0.0020961047 0.15524165 0.17651473
000080 6b 99 04 be 18 24 d7 bd e4 2e 22 3c 19 d5 f2 3d
       -0.1294915 -0.10504931 0.009898875 0.118570514
000090 c0 31 b1 bd e4 0a 9f bd cf 1c a0 bb 7e 7f 66 3d
       -0.08652067 -0.07765749 -0.0048862468 0.05627393
0000a0 26 9d d8 bd 9b a5 ff bc 0e c0 f2 3d 34 e3 0a 3e
       -0.10576849 -0.031206897 0.11853038 0.13563234
0000b0 0e 8a 8b bd 0e bc 29 bc da fe b0 3d 85 a8 ce 3d
       -0.06813441 -0.010359777 0.08642359 0.10090736
0000c0 5a c1 1c bd f8 f7 4f bd 68 1e ba 3c 41 29 f9 3c
       -0.038270332 -0.05077359 0.022719577 0.03041518
0000d0 be 51 b4 bd 4b d3 1c bd 11 40 ab 3d 00 4b b5 3d
       -0.088046536 -0.038287442 0.08361829 0.08852196
0000e0 40 4f e0 bd 16 05 34 bd 27 49 70 3d 7e 02 de 3d
       -0.10952616 -0.043950163 0.058663514 0.10840319
0000f0 64 11 83 bd 25 e4 3e bd d8 9d ca 3c 6e 33 22 3d
       -0.063998014 -0.046604294 0.024733469 0.03959983
000100 d2 55 38 bd a9 17 fc bc 7c 56 d3 3a 8a 92 ca 3c
       -0.04500372 -0.030773 0.0016123797 0.024728078
000110 ae 59 c7 bc cd 4c df bc 57 15 10 bc e9 03 d2 bb
       -0.024334755 -0.027258301 -0.00879415 -0.0064091575
000120 65 da e5 bb 57 be 21 bd 52 7e 4b bc cd 9b 54 bc
       -0.00701456 -0.039488163 -0.012420254 -0.012976599
000130 9c e2 94 3a 08 11 13 bc 93 b5 02 3c 36 27 12 ba
       0.0011359039 -0.008976229 0.007977861 -0.0005575301
000140 d9 34 98 3c ec 3d e4 3c 59 73 9f 3c 2a 11 c3 3b
       0.018579887 0.027861558 0.019464182 0.005952974
000150 f9 98 03 3d 1e b9 8a bc 1d be 19 bc ba ca 92 bc
       0.032128308 -0.016933974 -0.009383705 -0.017918933
000160 79 cf 3c bc ed 8e 4e bd 85 9f 0c bd f0 5e 84 bc
       -0.011524075 -0.050429273 -0.034331817 -0.016158551
000170 44 01 d6 bc f4 b2 b7 bc 59 23 1a 3d 63 f4 8b 3d
       -0.02612365 -0.022424199 0.037631366 0.068337224
000180 3b 47 8a 3c ce 8c 41 bd fd 0d b6 bd e3 fb 83 bd
       0.016879668 -0.047253422 -0.08889387 -0.06444528
000190 cd f2 32 3c bb e0 cf 3c bb 1b 6e 3d ac 6d 1e 3d
       0.010922146 0.025375715 0.058131915 0.03867881
0001a0 df 37 5a ba 04 bd 79 3a f8 60 ea 3c 75 18 fb 3c
       -0.00083243655 0.0009526762 0.028610691 0.03065131
0001b0 1f 89 a4 3d 9a 70 60 3c 1a b5 bc bc f4 e9 3c bd
       0.08033966 0.013698721 -0.023035575 -0.046121553
0001c0 26 2a bb 3d 86 5a d6 ba 7f d4 4b bd ac 62 c8 bc
       0.091388986 -0.0016353882 -0.0497632 -0.024461113
0001d0 da 5c 59 3d ee ba af bb b8 55 57 bd a5 fc 56 bd
       0.053067066 -0.00536286 -0.052571982 -0.052487034
0001e0 ad 63 24 bc 7f e1 06 bd 45 d4 8f 3c c1 03 5a 3c
       -0.01003353 -0.032929894 0.017557273 0.013306559
0001f0 a5 81 1a bc c2 c2 ed bc 15 1c a9 3c 01 70 3c 3c
       -0.009430324 -0.029023532 0.020643273 0.011501313
000200 c2 34 b0 bc be 46 c1 bc 06 7e d2 bc 6e 27 ee bb
       -0.021509532 -0.023593303 -0.025694858 -0.007267884
000210 17 33 30 bb a3 58 32 bc c7 2c a2 3b 06 03 5d bc
       -0.002688592 -0.01088539 0.0049491855 -0.01348949
000220 1a 83 8b 38 57 5d 3f bc 2d 26 c8 3c 55 81 9d 3b
       6.652456e-05 -0.011679969 0.024432266 0.0048066773
000230 b6 1d 5b bd 97 dd 03 bd 85 62 af 3c 93 fa 0a 3d
       -0.05349513 -0.032193746 0.021409282 0.033930372
000240 f4 d8 43 bd 59 9a ae bc 9a 8c e1 bb 94 45 be 3c
       -0.047814324 -0.021313833 -0.006883216 0.023226537
000250 d1 96 d2 bd 79 09 c5 bd 7f 51 e4 ba 08 8f 8e 3d
       -0.10282672 -0.096209474 -0.0017419307 0.06960875
000260 19 33 e9 bd 1a 41 22 3c 6e 95 14 3e 5b 57 27 3e
       -0.11386699 0.009903217 0.14510128 0.16341917
000270 0e c2 bb bd 81 e7 c8 bc c0 d2 b4 3d f0 5f d3 3d
       -0.09167872 -0.024524452 0.0882926 0.10321033
000280 37 ca c6 bd 38 80 a6 bc 90 53 e7 3d 3c dd e9 3d
       -0.09706538 -0.020324811 0.11295235 0.1141915
000290 7d 29 e7 bd f8 33 a9 bd 09 9f 3e 3d ff 88 df 3d
       -0.1128721 -0.082618654 0.046538386 0.10914802
0002a0 b9 95 c0 bd 32 6f 9d bc d0 9b fa 3d 0b 59 0a 3e
       -0.09403557 -0.019218061 0.1223675 0.1351053
0002b0 ff ee 86 bd c3 d8 02 bd 60 75 63 3d 62 a5 8f 3d
       -0.06588554 -0.031945 0.05553186 0.07013966
0002c0 24 1c b5 bd 53 bc 03 bd 03 0b b3 3d 27 1f eb 3d
       -0.08843258 -0.03216202 0.08742335 0.11480551
0002d0 18 1c 78 bd 3e 33 36 bc ec 34 fd 3c 64 40 ad 3d
       -0.060573667 -0.0111206155 0.030909024 0.08459547
0002e0 6e 3b 5b bd 8e 9a e2 bc fc 9d 41 3d a3 11 81 3d
       -0.053523473 -0.027661588 0.047269806 0.06302192
0002f0 77 d1 47 bd 97 7b 1b bd 50 28 19 3c 27 2b e7 3c
       -0.048783746 -0.03795966 0.00934799 0.028218819
000300 0d bf c3 bc b9 fa e6 bc b2 a1 81 bc b6 19 65 bb
       -0.023894811 -0.028195726 -0.015824173 -0.0034957952
000310 f4 f5 4a ba 5e b3 ce bc 37 0e ee bb 9f f9 0a bb
       -0.00077423383 -0.025232013 -0.007264878 -0.0021205915
000320 19 d3 06 3b 6c 94 f3 bb bf 1f 91 bc ea f3 2a bb
       0.0020572601 -0.0074334648 -0.017715333 -0.0026085326
000330 b3 3b d1 bc 0b 26 6f bd 55 eb aa bb 1e 10 47 3b
       -0.025541162 -0.05838589 -0.005216042 0.0030374597
000340 23 4e 40 bd 49 ab 36 bd ec be ee 3c 91 70 05 3d
       -0.046949517 -0.044596944 0.029143773 0.032578055
000350 22 67 6e 3c d4 87 a3 bc 1f cb 0b bd 5a 22 05 bc
       0.014550956 -0.019962229 -0.03412926 -0.008125866
000360 6c a9 89 3c ab c1 b9 3c 31 c5 2a 3d 23 8a 13 3c
       0.01680442 0.022675356 0.041691963 0.009005102
000370 e0 1a 4f 3d 9a 52 bf bb b2 e6 df bc b4 72 c9 bb
       0.05056274 -0.0058387043 -0.027331684 -0.006147707
000380 08 00 89 3b 27 e4 1e bd 98 71 56 bd 21 81 a7 bc
       0.004180912 -0.0387918 -0.052354425 -0.020447316
000390 28 0c ba 3d f8 d7 e3 3b f2 37 c1 bd f8 39 95 bd
       0.0908435 0.0069532357 -0.09434499 -0.07286447
0003a0 46 3c 86 bc 3e 2b 51 bd 77 94 c2 3c fa 3d 8c 3c
       -0.016386162 -0.05106663 0.023752434 0.017119396
0003b0 f7 37 b9 3c bc 68 5a bc 2d be 64 bc 15 71 c7 bb
       0.022609694 -0.013330635 -0.013961357 -0.0060864785
0003c0 ee ae 78 bc 4b ea 28 bd 28 69 0b 3d ec 71 10 3c
       -0.015178425 -0.041239064 0.03403583 0.008816224
0003d0 f8 4e 84 ba d5 9c 8b bc cf ad 38 bc 9c 55 cc bb
       -0.0010094335 -0.017042557 -0.011271908 -0.0062357914
0003e0 3e 9f 80 3c 2a a5 a1 bb 2e b6 03 bc f9 cf 38 bc
       0.015700933 -0.004933019 -0.0080390405 -0.011280053
0003f0 73 af 3d 3c 68 cc 9f 3d 74 a7 51 3d ae cc bf 3b
       0.011577475 0.07802659 0.051185086 0.005853257

conv_blocks.0.bias f4 [64]
000000 da cd 9e 3d 89 fe 06 be ec 9a c2 3d 95 19 4c 3e
       0.07754107 -0.13183035 0.09502205 0.19931634
000010 c2 38 76 3d 36 5c a5 3b 05 ca 1f 3e 5c f1 0e 3e
       0.060112722 0.005046393 0.15604408 0.13959259
000020 4b 5a f6 3c b2 d5 c8 3d 42 08 ec 3d 31 79 21 3e
       0.030072352 0.09806384 0.115250126 0.15768887
000030 c1 fd 43 3e dd 56 0e 3e 89 29 11 3e 5d 32 5b 3e
       0.19139768 0.13900323 0.14176 0.21405931
000040 17 4b e7 3b 25 10 a7 3d 37 91 9d 3d b0 86 0f 3e
       0.007058512 0.08157376 0.07693713 0.14016223
000050 5a 92 b9 3d 4c d4 24 3d 4f d5 f9 3d 2e e6 f8 3c
       0.090611175 0.040241525 0.121988885 0.030383196
000060 41 f5 c2 3d d7 19 62 be f4 a6 80 3e 5a f1 83 3a
       0.09519435 -0.2208017 0.25127375 0.0010066435
000070 d2 04 11 3e 88 66 33 bb 73 4d f1 3d 38 9d 98 3d
       0.14161995 -0.0027374346 0.117823504 0.07451862
000080 c7 33 9a 3e 72 73 b4 bd 2c 9f 53 be e2 af c2 3d
       0.30117628 -0.08811082 -0.20666188 0.09506203
000090 b9 04 a3 3d 74 2d 17 3e 8d 18 83 3e ca a5 7a be
       0.07959885 0.14763433 0.25604668 -0.24477306
0000a0 08 15 8c 3d fd 9a 16 3d 67 0a 2c 3e 4f 46 1e 3e
       0.06839949 0.036768902 0.16800843 0.15456508
0000b0 a8 d7 09 bb 51 4c e2 3d 85 8e 83 3e 59 e6 d1 3d
       -0.0021033082 0.110497124 0.2569467 0.102490135
0000c0 85 62 d4 3d 64 6e 62 3e f0 49 ea 3c 2c 0b a4 3d
       0.103703536 0.22112423 0.02859971 0.08009943
0000d0 02 99 39 3e d8 8e f4 3d 3a f3 07 3e 07 82 2b 3c
       0.18124774 0.11941308 0.13276377 0.010468013
0000e0 ac 38 01 3d c0 66 e6 3c 5a d9 37 3e 80 07 a1 bc
       0.031548187 0.028125167 0.17954007 -0.019656897
0000f0 0f 1b e9 3d 24 3f 4d bd 68 b9 49 3e 8a ce aa bb
       0.11382114 -0.050109044 0.19699633 -0.0052126097

conv_blocks.2.weight f4 [128, 64, 4]
000000 8b 49 a5 bd 73 a9 f8 3b 34 5a 90 bd e5 c0 db bd
       -0.08070668 0.0075885593 -0.07048455 -0.10730151
000010 8e 13 b1 3a f0 65 af bc d6 03 61 bd e7 f1 81 3b
       0.0013509856 -0.021410912 -0.0549353 0.0039656046
000020 a3 31 37 bd 10 4f 11 bd c5 3e 5f 3d 25 5c 18 bd
       -0.04472507 -0.03547579 0.05450322 -0.03719725
000030 e2 7f 29 bd 58 3c de bc 17 6c 03 bc 53 49 56 ba
       -0.041381724 -0.027128384 -0.008021376 -0.00081743783
000040 dc 0f a8 3c 2d 99 90 bd 27 c2 af 3c 09 38 08 3a
       0.020515375 -0.07060466 0.021454884 0.0005196338
000050 f9 22 95 bd bd 21 8e bd 98 f6 3b bb 60 25 cc b9
       -0.07282061 -0.06940029 -0.0028680917 -0.0003893776
000060 38 a8 5b 3d e6 15 27 3d 65 d6 1d bd 4e 89 ab bc
       0.053627223 0.04079237 -0.03853454 -0.020939495
000070 99 78 9e bd 48 53 47 3c 7b 49 67 bc b2 68 c0 bc
       -0.07737846 0.012165852 -0.01411664 -0.023487423
000080 60 14 75 bd 39 86 a0 bd 33 74 b0 bd 4a 3f c0 bd
       -0.059833884 -0.07838101 -0.08615913 -0.093870714
000090 96 b9 20 bd 9d 97 89 3d b7 8f ab 3d 20 f5 99 3c
       -0.03923949 0.06718371 0.08377021 0.018793643
0000a0 fb 90 24 bd 64 86 8d bd 0e 69 98 3b c9 d4 8e bc
       -0.040177327 -0.069103986 0.0046511954 -0.017435448
0000b0 bc be a8 bd ba b9 80 bb c2 00 9d bc 0b 5d 40 bd
       -0.08239505 -0.0039283903 -0.0191654 -0.046963733
0000c0 22 43 a4 bb ee 9d 70 bd 42 a6 df 3c d5 55 ac bd
       -0.0050128857 -0.058744363 0.027300958 -0.08414809
0000d0 17 83 87 bc 66 32 f2 bc 11 f1 73 bd 5b 00 ad bd
       -0.016542 -0.029565047 -0.05955607 -0.084473334
0000e0 b8 ac 4e bd bc 21 ec 3c 45 3f a3 ba 2a bb 24 bd
       -0.050457686 0.02882468 -0.0012454769 -0.040217556
0000f0 3d d8 5e 3d 1d 78 36 bc 63 60 a5 3c 85 19 2e bb
       0.05440544 -0.011137036 0.020187562 -0.0026565504
000100 c9 33 1b bd ce d3 18 bd 34 c5 d9 3b 5f 5e 82 bd
       -0.037891183 -0.037311368 0.006645823 -0.06365656
000110 1e 02 08 bc 70 46 41 3c 5d e9 cc 3c 20 f0 37 3c
       -0.008301286 0.011796579 0.02501362 0.011226684
000120 51 14 f3 bc 21 db 77 3d b1 84 97 bb 74 24 32 bc
       -0.029672774 0.060511712 -0.0046239723 -0.010872949
000130 e9 52 df 3c de 63 59 3d c3 82 3d bc 84 e0 96 bc
       0.027261214 0.053073756 -0.011566821 -0.018417604
000140 43 6f 65 bc 7f bc 7e 3b 2b f6 69 bb ed 5d 63 bc
       -0.014003578 0.0038869677 -0.0035699706 -0.013877374
000150 d8 c9 3b bb d0 91 8e bd d0 bd 2f bc 7d fa bc bd
       -0.0028654244 -0.06961405 -0.010726407 -0.09227464
000160 66 bf 5c bd bd 48 ad bc b4 87 28 3c bb 3e 1c 3c
       -0.05389347 -0.021152848 0.01028626 0.0095364405
000170 b2 b3 d8 bc 91 39 a6 bc 11 cf c3 bd df 8e 7e bd
       -0.026452873 -0.020291122 -0.09560979 -0.06214797
000180 8d 4c 78 bd 5b 61 8b 3c db ed db bb 6c 4b cd ba
       -0.06061988 0.017014196 -0.006711704 -0.0015662736
000190 0f 8b 5b bd fb 61 18 3d 21 f1 5a bd f5 c4 a5 bb
       -0.053599413 0.037202816 -0.053452615 -0.0050588795
0001a0 86 e2 10 bd e4 20 46 3d bd b5 cb 3b 66 c7 22 3d
       -0.03537228 0.04837121 0.0062167333 0.039740942
0001b0 2b 6f b3 bc 25 de 01 bc ba ba 1e bc f1 3f 52 bd
       -0.021903595 -0.007926499 -0.009688074 -0.05133051
0001c0 03 0a 09 bc e5 26 10 bc ae 9f 2e 39 39 3e 02 bd
       -0.008364203 -0.008798336 0.00016653418 -0.03179762
0001d0 13 40 10 bc 5a 27 5d bd c2 9c b2 bd 3e 36 5c bd
       -0.008804339 -0.053992607 -0.087213054 -0.053762667
0001e0 9a 5b 36 bd 60 37 5a bd da 77 d7 ba f9 85 77 bd
       -0.04452095 -0.053275466 -0.0016438917 -0.0604305
0001f0 c5 1c 9b bc 83 ad 84 3b 8f b5 a0 3c f6 cc d3 3a
       -0.018934617 0.0040490045 0.019617824 0.0016159106
000200 6c 64 81 3d 7e bc cc 3d fa 0a 15 3e 8a b2 b5 3d
       0.06317982 0.099968895 0.14554968 0.08871944
000210 c8 fc 06 3c 63 02 f4 bb 0b 80 78 3d d0 b0 b2 bc
       0.008238979 -0.0074465736 0.060668986 -0.021812826
000220 13 b2 6c 3d bb 56 b0 bc fc cb 70 bc d9 bf 8b 3c
       0.057787012 -0.021525731 -0.014697071 0.017059254
000230 ac 7f 84 bd 32 e2 07 bb 2f 9d 89 bd a0 a8 1b 3c
       -0.06469664 -0.0020734188 -0.067194335 0.009500653
000240 e4 96 8f bd bc c7 d6 3c 8b 96 08 bc ff ce 14 bd
       -0.07011202 0.026218288 -0.0083366735 -0.03633022
000250 aa b2 81 bc 2e c8 dc 3c d0 1e 8d bd fa e8 84 bd
       -0.015832264 0.026950922 -0.06890643 -0.06489749
000260 74 78 5b 3e bf c0 3f 3e 4d e1 27 3e 9d 58 31 3e
       0.21432668 0.1872587 0.16394539 0.1731896
000270 b2 8e 46 bd 43 2f e4 bb 05 61 b5 bc d9 80 6f 3b
       -0.04847593 -0.006963642 -0.02214099 0.0036545305
000280 54 2b ac bd fe 5a 9b bd 53 e5 69 bd fc fe a8 bc
       -0.08406702 -0.07585715 -0.057103466 -0.020629399
000290 e8 4c 21 bd fb 91 0e bd 0e b8 a8 bd 1f a6 66 bc
       -0.039379984 -0.034807187 -0.08238231 -0.014077692
0002a0 66 50 d3 bc 73 23 5a 3c 1a a6 bc 3c e6 ba 29 bc
       -0.025795173 0.013314116 0.023028422 -0.0103595015
0002b0 41 5a 12 3d f7 eb f8 bc 66 c1 8e ba 18 14 02 bb
       0.035730604 -0.030385954 -0.0010891377 -0.0019848403
0002c0 c6 51 8f bd c6 ec 0d bd ab e3 73 bc a5 d7 42 bd
       -0.06998019 -0.034649633 -0.014885823 -0.047568936
0002d0 45 80 b4 bd 20 f9 45 bd 7a aa 96 bd c0 fd 43 39
       -0.08813528 -0.048333287 -0.073567346 0.00018691178
0002e0 a4 fd 9f bd 0f ec 1d bd 66 b4 57 bd 88 d9 8a bd
       -0.0781205 -0.0385552 -0.052662276 -0.06779772
0002f0 06 4a ca 3c 28 1b 43 bc d5 d8 59 bd 7e 4d f2 ba
       0.0246935 -0.01190833 -0.053185303 -0.0018486229
000300 26 75 47 bd 70 12 9c bd 57 1a eb 3b 57 7b de 3b
       -0.048695706 -0.07620704 0.007174771 0.0067896056
000310 53 e1 dd bb 9c 9f 75 bd c3 de cf 3c 66 7a 2b bd
       -0.0067712455 -0.05996667 0.025374776 -0.041864775
000320 72 e1 c2 bd cc 6a 91 bd af 0c b6 3c fc 4f aa bd
       -0.095156565 -0.07100448 0.022222845 -0.08316037
000330 ce 1f b5 3c 3d 55 53 3c f0 d9 41 3b b8 30 24 bc
       0.022109892 0.01289874 0.0029579364 -0.010021381
000340 5f 82 c5 bd ec 7d 99 bc 7c aa 35 bd 4a 83 a8 bc
       -0.09644007 -0.018736802 -0.04435204 -0.020570416
000350 8b 73 00 bd 1a 89 1c bd 28 74 2f bb 5e 39 13 3c
       -0.03136019 -0.038216688 -0.0026772115 0.008985845
000360 4c 4c 8e bd 76 49 0f 3c 9d 75 ad 3b cf 27 8f bd
       -0.06948146 0.008745542 0.0052935616 -0.06990015
000370 9c 4f 0b bd d2 18 ba 3c 8f a3 05 3d ae 71 08 ba
       -0.03401147 0.022716913 0.032626685 -0.0005204928
000380 5f 81 4e bd 09 e8 c1 bd ab e8 85 bb 5c fc af bd
       -0.050416347 -0.09468085 -0.004086574 -0.085930556
000390 fc b8 a3 bd 16 f2 1f bd 83 f7 73 bd 9a 6d 81 bd
       -0.07994267 -0.03904923 -0.059562217 -0.06319733
0003a0 59 39 81 bc f3 ab 1a bc 6d cb 05 3d 00 26 9a 3a
       -0.015774416 -0.00944041 0.032664705 0.0011760592
0003b0 20 f2 a2 3c 4d d8 28 bc d4 6e 08 bd 7c cb 9e bd
       0.019890845 -0.010305476 -0.03330882 -0.07753655
0003c0 9f 79 c6 3b ef bd 45 bd d6 dd 91 b8 0d e6 ad bb
       0.006056979 -0.048276838 -6.955459e-05 -0.005306965
0003d0 78 1a 63 bd 78 f6 90 bd 52 1c cc bc 0b d5 f7 bd
       -0.055445164 -0.0707826 -0.024915848 -0.121011816
0003e0 ea f3 4c 3e cd fd 5e 3e ae 85 5c 3e ec 51 1a 3e
       0.20014921 0.21776505 0.2153537 0.15070313
0003f0 d0 02 ff 3b cf cc a5 bd dd a5 c1 bd ea 29 0a bb
       0.0077823177 -0.08095705 -0.09455464 -0.0021082112

conv_blocks.2.bias f4 [128]
000000 5b c2 08 be 0b 1d 08 3e 2f 14 b4 bc 96 09 0d be
       -0.1335539 0.13292329 -0.02198228 -0.13773188
000010 56 19 fc bd 1b 74 24 3e ba 30 d3 bd 02 df 0b 3e
       -0.1230952 0.16059916 -0.10312028 0.1365929
000020 e0 bd 06 be 69 a2 1e 3c 96 bd d4 bd a3 94 1a be
       -0.13158369 0.009682276 -0.10387723 -0.15095763
000030 a7 c9 2f bd 56 b9 1d 3d 69 8c 9e bd 6b 6b 18 3e
       -0.04291692 0.03850683 -0.07741625 0.14884727
000040 04 a3 95 bd 01 9f 17 3e ea f6 10 be cb 4d 8a bd
       -0.073064834 0.14806749 -0.1415669 -0.06753119
000050 6e 68 90 bd c9 9f 17 3d 33 35 34 3d e4 e6 e8 bd
       -0.070511684 0.037017617 0.043996047 -0.11372164
000060 3a 0b 25 3d c0 fe 03 3d f3 03 d5 bd 76 a1 ef bb
       0.04029391 0.03222537 -0.10401144 -0.007312949
000070 f7 dd bb bd 67 57 40 3e 58 5b 2a be 58 7c 3d be
       -0.09173196 0.18783341 -0.16636407 -0.18504465
000080 79 ce 0d 3e cc 12 c4 3d 7a 57 be bd a9 c5 fe 3d
       0.13848294 0.09573898 -0.092940286 0.124400444
000090 d8 a5 20 bd ed f9 ea bd 4b 7d 9e 3d 0e e8 07 3e
       -0.03922066 -0.11473451 0.077387415 0.13272116
0000a0 d7 4c d4 bd 2d b9 f9 bd 4c 4e 8e bd 19 8d df bd
       -0.103662185 -0.121935226 -0.06948528 -0.10915584
0000b0 42 c4 f3 bd c2 f4 a2 3d 14 fa 72 3d ae e1 07 3c
       -0.119026676 0.0795684 0.059320524 0.008293552
0000c0 04 3f 0a bd 22 4c 34 be 55 f7 6f 3c 0c 44 19 3e
       -0.033751503 -0.17607167 0.014646371 0.14967364
0000d0 5d 86 15 bd 42 d5 71 bd 5f 46 d6 ba 44 0c 7b 3d
       -0.036505092 -0.05904127 -0.0016347877 0.061290994
0000e0 4d 5e 3b 3d 85 58 4c 3e b8 63 23 3e 9e b8 fb 3d
       0.04574423 0.19955643 0.15956008 0.12291072
0000f0 2b 38 95 bd a9 3e 40 bd 81 64 2c 3e 36 c9 a0 3d
       -0.07286104 -0.046934757 0.16835214 0.07850878
000100 99 2f 64 bd 47 01 41 3e 61 be dc bd 3a 4c 19 be
       -0.055709455 0.18848144 -0.107784994 -0.14970484
000110 3a 65 d0 bd fb e1 8e bd 08 59 f6 bd 36 05 03 be
       -0.101755574 -0.06976696 -0.120287 -0.12794957
000120 fd 90 37 be ae 5e 30 bd 95 a5 d2 bd e4 3a b8 bd
       -0.17926402 -0.043059044 -0.102854885 -0.089956075
000130 81 94 0e bd 3d 91 15 3d 49 05 55 be 4e 62 59 bc
       -0.034809593 0.036515463 -0.20802797 -0.013268067
000140 a9 5f 91 bd 11 aa 15 3e fe 65 64 3e c7 b9 93 3d
       -0.07098324 0.14615656 0.22304532 0.072131686
000150 9e 00 27 bd b3 8f 73 bd 10 00 d4 3d c7 6a 3f be
       -0.040772073 -0.059463214 0.103515744 -0.18693076
000160 80 4e 4f 3e c4 d1 2d 3c 1a d1 21 be 44 8a 1b be
       0.20244789 0.010609094 -0.15802422 -0.15189463
000170 10 d3 16 3d e4 11 15 3e 30 41 50 3e f1 6c b0 3d
       0.03682238 0.14557606 0.20337367 0.08614529
000180 60 53 ab bc 81 9d 41 be bc a4 15 be d3 d7 91 3d
       -0.02091378 -0.18907739 -0.14613622 0.07121243
000190 17 91 3d 3e 5a 27 88 bd 3e 22 c6 3b ad 55 14 3e
       0.18512379 -0.06648131 0.0060465625 0.14485808
0001a0 d9 80 86 3d 9d aa 21 3e 72 4c e6 bd f0 0c 1c 3e
       0.065675445 0.1578774 -0.112450495 0.1523931
0001b0 25 c8 09 3e 92 3b 01 3d 42 64 c8 bd ce 2b ee bc
       0.13455255 0.03155095 -0.09784748 -0.029073622
0001c0 a0 e6 46 3d 77 1f 92 bd 35 cd 81 3d a5 a7 e5 b9
       0.048559785 -0.07134908 0.06337968 -0.0004380319
0001d0 6b 62 8e bd 97 41 13 be 75 f7 04 bc a9 80 f1 bd
       -0.069523655 -0.1438049 -0.008115639 -0.11792118
0001e0 d8 35 1f be bb f9 dc 3d a3 a9 79 3e c2 4e 13 be
       -0.15547884 0.1078982 0.24381118 -0.14385512
0001f0 e3 4f 5b 3e ec b8 23 be 76 09 0c bd d2 ba 47 3d
       0.21417193 -0.15988511 -0.03418871 0.04876215

conv_blocks.4.weight f4 [256, 128, 4]
000000 c0 d3 f5 3d 45 1b 0e 3e 39 cd 2b 3e fb d7 50 3e
       0.12003279 0.1387759 0.16777505 0.2039489
000010 be e5 1e bd 82 5f 83 b9 76 a4 b5 bc ac 53 84 bd
       -0.038793318 -0.00025057426 -0.022173148 -0.06461272
000020 dc 83 08 3e cf 41 11 3e 33 4c c3 3d 2c 45 06 3e
       0.1333155 0.1418526 0.09536018 0.13112324
000030 c2 ea 13 3e ec 8f dd 3d 74 e8 ce 3d 96 43 2f 3e
       0.14445022 0.108184665 0.10102931 0.17115626
000040 a0 62 fa 3d 54 49 08 3e 88 c0 9e 3d c3 c6 03 3e
       0.122258425 0.13309222 0.07751566 0.1286879
000050 a5 32 0d 3e 55 4f e7 3d 10 70 ae 3d 28 28 1b 3e
       0.1378885 0.11294428 0.08517468 0.15152037
000060 10 7e a7 3d d8 24 f7 3d e9 3f dd 3d 9c c1 f4 3d
       0.081783414 0.12067574 0.108032055 0.119509906
000070 14 bf a4 3d 44 ab d3 3d c5 ee b9 3d 52 bc 12 3e
       0.08044258 0.10335401 0.09078745 0.14329651
000080 79 ce 65 3d 18 ba 23 3e 65 a3 05 3e be 34 07 3e
       0.05610511 0.15988958 0.13050611 0.13203713
000090 e8 e5 01 3e df c8 16 3e a3 33 fa 3d 82 c7 05 3e
       0.12685359 0.14725064 0.1221688 0.13064387
0000a0 8a 61 ae 3d 61 57 ff 3d 1d 28 1d 3e 8c 11 c4 3d
       0.08514698 0.12467838 0.15347333 0.09573659
0000b0 1c 0d 15 be f3 69 de bd 6f e7 c4 bd 8b 63 1f be
       -0.14555782 -0.10860052 -0.09614455 -0.15565316
0000c0 b8 ca f8 3d a1 d1 a3 3d 4f e8 16 3e 7a 61 d9 3d
       0.121480405 0.07998968 0.14737056 0.10614295
0000d0 39 22 27 3e 12 7a 3f 3e c5 17 23 3e d2 11 b7 3d
       0.16321649 0.1869891 0.15927036 0.08938946
0000e0 31 6d 14 3e 68 e1 35 3e e7 79 02 3e 6f 46 2e 3e
       0.14494778 0.17761767 0.12741815 0.17019056
0000f0 d2 09 c3 3d 28 3c 10 3e 05 86 e3 3d c1 e5 f9 3d
       0.095233575 0.14085448 0.111095466 0.12202025
000100 8b a1 2a 3e 6c fa c6 3d 14 7a f4 3d 74 96 0b 3e
       0.16663186 0.09715733 0.11937347 0.13631612
000110 4e ff 0f 3d 25 24 d4 bb f5 6f 3f 3c 2d 29 6a bd
       0.035155587 -0.0064740353 0.0116844075 -0.057168175
000120 f5 12 f0 bd 52 b4 d3 bd 44 c8 c4 bd 3c c5 6b bd
       -0.11722366 -0.10337128 -0.0960851 -0.057561144
000130 f5 8a df 3d fc f4 26 3e 5a b4 00 3e 78 68 07 3e
       0.10915176 0.16304392 0.12568799 0.13223445
000140 72 25 be bd cc f3 04 be ef 76 a1 bd 6e 3a ea bd
       -0.09284486 -0.12983626 -0.07884013 -0.11436926
000150 f6 41 d2 3d bd 10 28 3e 2e 1f e7 3d b3 68 d4 3d
       0.10266487 0.16412635 0.11285244 0.10371532
000160 96 f8 28 3e b3 17 01 3e 4b 21 1b 3e 84 1a 00 3e
       0.16501078 0.12606697 0.15149419 0.12510115
000170 fa 56 08 3e d2 c7 12 3e 88 35 37 3e e6 7d 15 3e
       0.13314429 0.14334038 0.17891514 0.14598808
000180 b6 c2 ae 3d 24 a9 ff 3d 76 89 06 3e 84 80 c7 3d
       0.08533232 0.12483433 0.13138375 0.09741309
000190 a0 00 2a 3e cc 23 42 3e 82 b9 1d 3e cf f7 e8 3d
       0.16601801 0.18958968 0.15402797 0.11375391
0001a0 55 44 ed 3d cb 04 6c 3d 7e 05 67 3d 55 fc 26 3d
       0.11585299 0.05762176 0.056401722 0.040767986
0001b0 6a f3 da 3d 1e b8 0f 3e b9 95 8b 3d b2 38 ef 3d
       0.10690959 0.14035079 0.06815667 0.11680736
0001c0 23 0d 52 3d 8d 55 b8 3d ec 2f e7 3d 1d 7e 4d 3d
       0.05128206 0.090006925 0.11288437 0.0501691
0001d0 99 c4 d0 3c 00 82 b9 bc 15 2c 60 bc cd 0c 86 bc
       0.02548437 -0.022644997 -0.013682385 -0.016363526
0001e0 e6 fe cb bd 11 13 c0 bd c1 b3 cd bd e4 73 a1 bd
       -0.099607274 -0.09378637 -0.10044051 -0.078834325
0001f0 e1 2f c0 3d f3 d1 00 3e a7 10 b7 3d 51 6a 27 3e
       0.09384132 0.1258009 0.08938723 0.1634915
000200 19 85 1a 3e c4 32 14 3e f9 9b 02 3e 22 db 21 3e
       0.15089835 0.1447249 0.12754811 0.15806249
000210 bf f5 ea bc 05 27 16 3d 14 01 97 3c 01 cb 9a 3c
       -0.028681634 0.036658306 0.018433131 0.018895628
000220 86 36 c7 3d 9f 46 d1 3d ce 10 05 3e a6 60 ac 3d
       0.097271964 0.10218548 0.12994692 0.08416872
000230 34 93 a7 3d df 85 12 3e a6 10 d1 3d 6b 41 9b 3d
       0.08182374 0.1430888 0.102082536 0.07580837
000240 90 82 1a 3d c8 50 bb 3d 76 52 e5 3d 75 42 9c 3d
       0.03772217 0.09146267 0.11197369 0.07629863
000250 df 7f c0 3d 7a 34 1a 3e 33 3f a2 3d 78 06 15 3e
       0.093993895 0.1505908 0.079222105 0.14553249
000260 0b 4c 89 3d a5 49 a3 3d f6 3a c8 3d 96 19 85 3d
       0.06703957 0.07973031 0.09776871 0.06499021
000270 71 e5 0b 3e 7f be f9 3d d4 25 fa 3d 9c ed 27 3e
       0.13661744 0.12194537 0.122142464 0.16399235
000280 8b 9b db 3d 6e 3f 10 3e b4 39 dd 3d 74 c3 a8 3d
       0.10723027 0.14086697 0.108020216 0.08240405
000290 a1 32 b8 bd b6 d3 d7 bd 46 35 2f be 2e 34 e8 bd
       -0.08994032 -0.105384275 -0.17110166 -0.113380775
0002a0 97 bb f4 3d 1a 54 fa 3d 40 fd e0 3d 47 32 b5 3d
       0.119498424 0.12223072 0.109858036 0.0884748
0002b0 6e ce 27 3e 3d bb 4b 3e 23 0f 3c 3e 0f fd 07 3e
       0.1638734 0.19895644 0.18365149 0.13280128
0002c0 ea 7c 4a 3e dc 05 75 3e d5 e3 79 3e d6 a3 56 3e
       0.19774213 0.23928016 0.24403317 0.20960936
0002d0 32 cc ff 3d d1 42 19 3e 8b 5f 07 3e ce 64 24 3e
       0.12490119 0.14966895 0.1322004 0.16054079
0002e0 b2 11 38 3e 28 c1 32 3e ea 54 17 3e 4b 18 ec 3d
       0.179755 0.17456496 0.14778486 0.11528071
0002f0 7f 9b db 3d 8f eb 0a 3e 06 ca 16 3e ce f0 48 3d
       0.10723018 0.13566421 0.14725503 0.049057774
000300 41 95 be bd 95 20 2c be 90 56 07 be 8a 0c aa bd
       -0.09305812 -0.16809304 -0.13216615 -0.08303173
000310 22 a0 64 3e 98 6e 47 3e 0e 87 7a 3e 81 03 72 3e
       0.22326711 0.19475782 0.24465582 0.23634149
000320 42 c7 c9 3d ee 22 d8 3d e8 f8 2d 3e b2 41 e4 3d
       0.098524585 0.10553537 0.16989481 0.11145343
000330 e0 5d 7f 3c bf ee c5 bb d1 5b 78 3c 97 94 21 bd
       0.015586346 -0.0060404236 0.0151586095 -0.039448347
000340 61 07 1f 3e e7 c5 55 3e 29 02 e9 3d 8d 3a db 3d
       0.15530159 0.20876275 0.11377365 0.10704527
000350 1a 0b cc bd 06 34 01 be b3 bb 1a be 65 e9 da bd
       -0.09963055 -0.12617502 -0.15110664 -0.10689048
000360 18 12 16 3e 72 ed 09 3e 13 29 f4 3d 61 8f 2b 3e
       0.1465534 0.13469484 0.11921897 0.16753913
000370 8f 83 6c 3d 2f 5e 28 3e 52 68 ab 3d 72 5c e8 3d
       0.05774265 0.16442178 0.08369507 0.113457575
000380 ce a2 8b 3d 45 93 ef 3d a9 54 f5 3d 96 f2 a3 3d
       0.06818162 0.11698011 0.11979038 0.08005254
000390 41 2b 16 bd 71 51 27 3d 1e d0 50 3c a0 a6 82 bc
       -0.036662344 0.040849153 0.0127449315 -0.015948594
0003a0 c7 d3 35 3c fb 3b a3 3c 19 be 16 bd d7 3d 19 bd
       0.011097855 0.019926062 -0.036802385 -0.03741249
0003b0 b0 86 ca 3d 2b de 26 3e 25 e3 43 3e 40 7c cb 3d
       0.09888971 0.16295688 0.19129618 0.09935808
0003c0 fa 74 a9 3d c1 f7 32 3e 2d 4e 8c 3d f2 d7 fb 3d
       0.08274265 0.17477323 0.06850848 0.12297048
0003d0 cd 82 9e 3d 62 36 a1 3d 94 31 10 3e d9 fc 80 3d
       0.07739792 0.07871701 0.14081413 0.06298227
0003e0 24 74 7e bd 47 4f e3 bb 21 f4 50 bc bf 05 6a bd
       -0.06212248 -0.006936941 -0.012753517 -0.057134386
0003f0 7a ba c9 3d e5 71 37 3e 98 15 22 3e 1b e9 04 3e
       0.09850021 0.17914541 0.1582855 0.12979548

conv_blocks.4.bias f4 [256]
000000 f1 fa 69 3c e7 91 35 3e 01 f5 3b 3e d9 60 2d 3d
       0.0142810205 0.17731439 0.1835518 0.04232869
000010 e0 cf ce 3c c8 d3 63 3e 56 0f 29 3c 3b dc 72 3e
       0.025245607 0.22248757 0.010318598 0.23716824
000020 42 3a df 3c 7f 11 f0 3c 2b 0c 6e 3c 56 ad 6f 3e
       0.02724946 0.029305218 0.014529268 0.23405966
000030 01 2c 10 3e 05 21 bc bb af 35 42 bb 6a d1 7a 3e
       0.14079286 -0.005741241 -0.0029634049 0.24493948
000040 b4 b2 15 3d ed 6d 69 3e 86 5b 3a 3e d1 c2 99 3c
       0.036547378 0.2279584 0.18198976 0.018769654
000050 9a a9 de bb 15 41 37 3e ed e9 61 3e cc 19 20 3d
       -0.0067951204 0.1789592 0.22061892 0.0390871
000060 72 37 3a 3e bc a8 41 3c a7 ba e2 3c 14 40 49 3d
       0.18185213 0.011820015 0.027676893 0.049133375
000070 df 13 3e 3e 90 46 1f 3e 66 54 61 3e 8b bb 14 3e
       0.18562268 0.15554261 0.22004852 0.14524667
000080 04 bd 58 3e 32 e9 50 3d 9f 53 fa 3b 5b 5b 1d 3e
       0.21165854 0.051003642 0.007639363 0.1536688
000090 a1 cb 22 bb 0a 6b 3a 3e bb 2b f6 3c a0 5e 2d 3d
       -0.002484061 0.18204895 0.03005015 0.04232657
0000a0 6e 2a 8d 3d b1 c7 54 3e c1 d0 4a 3d 0d 8d ab 3c
       0.068928584 0.20779301 0.04951549 0.020941282
0000b0 5c 78 13 3e 30 77 07 3e ce fb 30 3e 66 ca 17 3e
       0.14401382 0.1322906 0.17283556 0.14823303
0000c0 d9 54 41 3e 2a 2f 4a 3d aa 81 46 3e e5 76 bc 3c
       0.18880023 0.049361385 0.193854 0.023005912
0000d0 67 27 90 3c 34 36 33 3d 37 ee 7e 3d fe 24 90 bc
       0.017596914 0.043752864 0.062238898 -0.017595764
0000e0 fc 3b 5a 3e f7 43 e1 ba 35 0e 6d 3b 71 b1 83 3e
       0.21311945 -0.0017186393 0.0036171798 0.25721315
0000f0 6f 1f 09 bc f4 6f 2c 3e 65 4a 31 3e f1 25 3e 3e
       -0.008369311 0.16839582 0.17313536 0.18569161
000100 64 f4 9b bc af 9a 54 3e b8 0d 83 3d 56 5c 17 3d
       -0.019037433 0.20762132 0.06399101 0.036953293
000110 a0 ff ee bb f0 03 0f 3e 79 f8 63 3e 93 fe 50 3e
       -0.0072936565 0.13966346 0.22262754 0.20409612
000120 dd cb 92 3c e9 3a 23 3e 41 26 6e bc 30 80 d6 ba
       0.017919475 0.15940441 -0.014535488 -0.0016365107
000130 55 7d 14 3b 10 26 17 3d c3 f5 4a 3d df 87 b8 3b
       0.0022657712 0.036901534 0.049550783 0.0056314315
000140 13 01 32 bb 4b ea 55 3d bb f1 f7 bb e7 2c 5a 3e
       -0.0027161285 0.052225392 -0.0075666583 0.21306191
000150 5d 1a 59 3d 07 45 45 3d 57 d6 53 3e 2c 07 d2 3c
       0.053003658 0.048161533 0.20687233 0.025638185
000160 ef f8 0e bc 1a 4c 26 3e 20 24 79 3e 67 0a 0b 3c
       -0.008726343 0.16239968 0.24330187 0.008486367
000170 e9 03 b6 bc e1 d8 5d 3e 82 22 44 3d 8d a3 c1 3c
       -0.022218661 0.21664764 0.04788447 0.023637557
000180 72 a1 45 3e 02 04 2c 3e 7d b9 31 bc 46 66 1d 3e
       0.19299868 0.16798404 -0.0108474465 0.15371045
000190 45 34 51 3b 8b d0 04 3c 76 24 67 3e 3e f4 61 3e
       0.0031922024 0.008106361 0.22572502 0.22065827
0001a0 b6 f4 6f bb cb a2 42 3e 18 4f 70 3e 96 b6 28 3e
       -0.0036614365 0.19007413 0.23467672 0.16475901
0001b0 07 b8 47 3e fe eb 64 3e ca e9 2f 3e 27 2f b9 3b
       0.19503795 0.22355649 0.17179027 0.005651373
0001c0 1d 72 59 3e a1 df 47 3d 5f d7 47 3e f7 6b ed 3c
       0.21234937 0.048797254 0.19515751 0.028982146
0001d0 97 04 8b 3b f3 5f 98 3c 0d 03 50 3e 40 1f f0 3d
       0.0042424905 0.01860044 0.20313664 0.117247105
0001e0 1c 25 aa bc 45 88 3c 3d 0c 96 65 3d 67 8d 3f 3a
       -0.020769648 0.046028394 0.0560513 0.00073071424
0001f0 91 f0 29 3e 14 6d 1c 3d 1d c0 0d 3d bd db 22 3e
       0.16595675 0.038189963 0.03460704 0.15904136
000200 1a 6b 58 3e 34 5d 12 bc e8 0c 6c 3e 9d 3c 5b 3e
       0.21134606 -0.008933354 0.23051798 0.21409841
000210 4e 04 c6 bb 0f 31 7c 3c 2e 16 44 3e 34 1d 13 3e
       -0.0060429936 0.015392556 0.19149086 0.14366609
000220 04 1d 32 3e 13 97 87 3b 80 c7 c3 3c 2f d2 6a 3e
       0.17393881 0.0041378825 0.02389884 0.22931741
000230 5b 8b 2d 3e 9b d5 1a 3e 42 9a 3d 3d fa 23 36 3e
       0.16947691 0.15120547 0.04628969 0.17787161
000240 49 2f 15 bc a4 3d f9 3b 14 33 64 bc fd 8b 16 3d
       -0.009105512 0.007606225 -0.013928194 0.036754597
000250 0d 59 7c 3c 73 2c 20 3e 10 dc 24 3d e0 7a 17 3e
       0.015402091 0.15641956 0.04024893 0.14792967
000260 98 e0 04 3d a1 69 68 3d b5 79 80 3e 18 e1 2f 3e
       0.03244075 0.05674136 0.25092855 0.1717571
000270 81 a6 45 3e 14 01 0b 3d e0 19 b4 3c de e4 4a 3e
       0.19301797 0.033936575 0.021984994 0.19813868
000280 85 20 51 bc 24 bd 1c 3d be b9 f2 3c 71 4f 82 3d
       -0.012764101 0.038266316 0.029629584 0.063628085
000290 37 6b 58 3d 52 2b 3f bc 03 98 7a 3d 1e 9a 67 3e
       0.052836623 -0.011668043 0.061180126 0.22617385
0002a0 07 0b 6e 3c 9e 50 36 3e 29 fb 19 3d 66 44 55 bc
       0.014528996 0.1780419 0.03759304 -0.013016796
0002b0 6e c3 2a 3e e3 3b 2b 3d 13 a7 fa 3c 43 09 3f 3e
       0.16676113 0.04180516 0.030597245 0.18655877
0002c0 49 e9 74 3e af b2 0c 3d ca a5 64 3d fc 94 73 3d
       0.23917116 0.034350093 0.05582217 0.059468254
0002d0 e0 43 30 3e 94 67 6e 3e 9b c8 7e 3c f7 05 6a 3d
       0.17213392 0.232817 0.015550758 0.057134595
0002e0 74 12 6a 3e b5 4c 97 bc 1f e1 a2 3b 3c 16 63 3d
       0.22858602 -0.018469194 0.004970684 0.055441126
0002f0 65 35 3b 3e b6 9c b6 bc f4 1b 40 3e 32 2d 6e 3e
       0.18282087 -0.022291522 0.18760663 0.23259428
000300 20 46 22 3d e9 20 1b 3d 84 79 d9 3c 32 64 5d 3d
       0.039617658 0.037873182 0.026547201 0.05405063
000310 19 9f 39 3e 56 5b 68 3e f0 f0 fb bb f4 f6 64 3b
       0.18127097 0.22691092 -0.007688634 0.0034937235
000320 c3 bb 2c 3e 9f 02 00 3e bc 38 3a 3d 12 ea 2b 3e
       0.168685 0.12501 0.045464262 0.1678851
000330 a2 f2 5c 3d 28 83 85 3e e7 d6 a4 3c 99 c3 a9 3c
       0.05394233 0.26076627 0.020122005 0.020723151
000340 96 bb 13 3e b6 f5 9f bc e5 8d 1b 3e 05 a8 06 3d
       0.14427027 -0.019526344 0.15190847 0.03287508
000350 b4 f4 56 3d d8 4e 63 3d bb 74 3f 3e ca 11 21 3e
       0.05247946 0.055495113 0.18696873 0.15729442
000360 48 b1 11 bb 45 41 16 3e 53 e4 00 3d 2b e2 46 3e
       -0.0022230912 0.14673336 0.031467747 0.19422214
000370 72 77 4c 3e 45 e0 39 3d 2f 9c 22 3e 77 26 84 3c
       0.1996744 0.045379896 0.15879892 0.016131623
000380 ac df a8 3c b3 c6 5f 3e bd fd 23 3c 46 b2 38 3e
       0.020614468 0.21853141 0.010009226 0.18036756
000390 5a 8b 57 3d 68 9b 0c 3d fd a2 4b bc cb aa 03 3b
       0.05262313 0.034327894 -0.012428996 0.0020090814
0003a0 c0 c0 35 ba a7 66 7a bc c3 e6 1f 3e 72 e3 26 3d
       -0.0006933324 -0.015283263 0.15615372 0.040744253
0003b0 3f 3f 1a 3d e0 32 67 3e 05 ac 3b 3e 15 24 2b 3e
       0.037657972 0.22578001 0.18327339 0.16712983
0003c0 61 40 38 3d 3f 11 48 3d 5d 19 42 3e 4d 53 4e 3e
       0.04498327 0.048844572 0.18954988 0.20148964
0003d0 43 4c 3f 3e 92 14 48 bc b6 49 d6 bb 9a c3 30 3d
       0.18681435 -0.012211936 -0.0065395487 0.04315529
0003e0 f7 bc 63 3e 3a 6f 5b 3e 75 10 84 bb 4f d1 58 3d
       0.22240053 0.21429148 -0.004030282 0.052933987
0003f0 18 26 b6 3c 91 4f 1d 3d 0c 64 88 3d b5 da 3b 3e
       0.022234961 0.03840596 0.066597074 0.18345149

conv_blocks.6.weight f4 [1, 256, 4]
000000 ee 3e 0b 3e 9a d7 38 3e 29 8e 42 3e 53 d5 24 3e
       0.13598225 0.18050995 0.18999542 0.16097002
000010 5e 8a a6 bd d0 0e 96 bd aa fe a8 bd 14 06 9b bd
       -0.0813186 -0.07327044 -0.08251698 -0.07569519
000020 cb 67 b6 bd 8a 90 2b bd 70 d3 0e bd 1b 42 a6 bd
       -0.08906516 -0.04188589 -0.03486961 -0.08118077
000030 4c 7c 34 3e 3b 3c 40 3e 41 f6 2c 3e 15 7e 58 3e
       0.1762554 0.18772976 0.16890813 0.21141846
000040 cf c8 24 3e f4 ae 25 3e 87 b2 3d 3e 18 43 55 3e
       0.16092227 0.1618002 0.18525134 0.20826375
000050 16 f9 b9 bd 89 ec 69 bd 9c 20 82 bc f6 11 5f bd
       -0.090807125 -0.057110343 -0.01588469 -0.05446049
000060 86 57 0a 3e ea 79 40 3e 6a ce 3d 3e 2b 9a 48 3e
       0.1350995 0.18796507 0.18535772 0.1959006
000070 89 57 c4 bd 20 2f ac bd 09 00 7c bd 48 d4 76 bd
       -0.095870085 -0.08407426 -0.06152347 -0.06026104
000080 7c 14 14 3e 09 f9 4f 3e 5e d9 36 3e f7 43 13 3e
       0.14460939 0.20309843 0.17856357 0.14381395
000090 f1 fa 14 3e 85 3a 15 3e e9 8d 51 3e 3c 91 2f 3e
       0.14548852 0.14573105 0.2046429 0.17145246
0000a0 ef 9e 12 3e 4b 17 3c 3e 23 3e 54 3e 50 5a 50 3e
       0.14318441 0.1836826 0.20726828 0.20346951
0000b0 a9 25 e0 bd b1 8c 43 bd 58 11 39 bd 02 27 97 bc
       -0.10944683 -0.047741596 -0.045182556 -0.018451218
0000c0 24 03 c7 bd 4c aa 5e bd ed 63 c1 3a a0 17 a2 bc
       -0.09717396 -0.054361627 0.0014754512 -0.019786656
0000d0 b3 1f 0b 3e 47 e2 15 3e d5 b8 47 3e 05 7f 4b 3e
       0.13586311 0.14637099 0.19504102 0.19872673
0000e0 3e 1f e5 3d 92 4c 1e 3e 4a c7 53 3e 62 a9 48 3e
       0.111875996 0.15458897 0.20681491 0.19595864
0000f0 b9 7a e2 bd aa 4e 13 bd e8 7e a5 bd 3f 2d d0 bd
       -0.11058564 -0.03596369 -0.08080846 -0.1016488
000100 83 31 dc 3d 5c 7f 47 3e 33 8b 25 3e 8f 84 3a 3e
       0.10751631 0.19482177 0.16166382 0.1821463
000110 a5 75 e6 bd be b6 71 bd fd 04 05 bd 98 89 80 bd
       -0.11252908 -0.059012167 -0.03247546 -0.06276244
000120 83 3f c9 bd 02 a3 63 bd 44 5f 6b bd 05 97 3f bd
       -0.09826567 -0.05557538 -0.0574639 -0.046774883
000130 c1 e6 27 3e bf d5 43 3e 19 36 2c 3e 4f 7b 4e 3e
       0.1639662 0.19124506 0.16817512 0.20164226
000140 03 f9 32 3e 64 89 43 3e 14 b7 34 3e 56 a6 3e 3e
       0.17477803 0.19095379 0.17647964 0.1861814
000150 25 8f db bd 58 ee 19 bb 95 f0 28 bd 81 70 86 bd
       -0.10720662 -0.0023488011 -0.041245062 -0.06564427
000160 2e f1 c8 bd 54 4e 37 bd f4 34 fd bc 56 7b 21 bd
       -0.098116264 -0.044752434 -0.03090904 -0.039424263
000170 10 3c 2f 3e 48 60 40 3e dc cb 3f 3e 0f 06 35 3e
       0.17112756 0.18786728 0.1873011 0.17678092
000180 f0 2f d2 bd 44 56 8b bd 9e 48 50 bd 73 26 38 bd
       -0.102630496 -0.06803563 -0.050850503 -0.044958543
000190 3c a0 c9 3d ba 96 43 3e 82 85 3c 3e 89 0a 2f 3e
       0.098450154 0.19100466 0.18410304 0.17093863
0001a0 ab 59 e4 3d c5 2a 37 3e 18 65 30 3e 15 19 47 3e
       0.11149915 0.17887409 0.17226064 0.19443162
0001b0 3c 2c 14 3e 08 c6 4c 3e 6f bd 20 3e 72 66 48 3e
       0.14469999 0.19997418 0.15697263 0.1957033
0001c0 bd 4b e4 bd 35 5a 4a bd ed 79 94 bd 5e 31 ba bd
       -0.111472584 -0.049402434 -0.07249818 -0.09091447
0001d0 5f 10 a1 bd 6c 83 6d bd 8c e7 e6 bc 7c be 28 bd
       -0.07864451 -0.05798666 -0.028186582 -0.041197285
0001e0 3a 7f fe bd 3f bb a9 bc 58 ac 5f bd a5 22 af bd
       -0.1242661 -0.020719169 -0.05460772 -0.0855153
0001f0 f4 6b fa bd 31 11 3a bc 53 7b 37 bd 18 67 a1 bd
       -0.12227622 -0.011356638 -0.044795346 -0.07880992
000200 47 b3 9d bd af 1d 68 bd eb 5a 9b bd 16 98 cc bd
       -0.0770021 -0.056668933 -0.075857006 -0.099899456
000210 1a 12 17 3e 25 f3 1e 3e 03 f8 44 3e ad 17 49 3e
       0.14752999 0.1552244 0.19235234 0.19637938
000220 f9 62 35 3e 23 c6 3e 3e 09 6c 2d 3e bf de 4b 3e
       0.17713536 0.1863027 0.16935743 0.1990919
000230 9d 50 f2 bd a4 c9 72 bd c9 48 50 bc 20 7e a9 bd
       -0.11831782 -0.05927433 -0.012712666 -0.082760096
000240 92 fc f6 3d 01 80 42 3e 55 0d 3f 3e 7d e3 28 3e
       0.12059893 0.18994142 0.1865743 0.1649303
000250 c8 86 e8 bd a5 e7 a6 bd 6c 68 82 bd 1c a7 6c bd
       -0.113538325 -0.081496514 -0.06367573 -0.057776555
000260 e8 ac 1f 3e 13 a7 33 3e 1e 72 3b 3e a3 00 30 3e
       0.15593302 0.17544203 0.18305251 0.17187743
000270 da e8 18 3e ee 66 1f 3e 49 bc 58 3e 47 e1 37 3e
       0.14932576 0.15566608 0.21165575 0.1795703
000280 23 3f 1b 3e 92 9c 46 3e c1 93 51 3e 42 4b 51 3e
       0.15160803 0.19395664 0.2046652 0.20438865
000290 0c 96 ea bd 7b b7 3d bc 9d 7c 00 bd 59 61 b2 bd
       -0.114544004 -0.01157939 -0.03136884 -0.08709974
0002a0 56 26 1a 3e ef 1c 1a 3e 38 68 49 3e a0 bb 3b 3e
       0.15053686 0.150501 0.19668663 0.18333292
0002b0 67 da 35 3e ec aa 48 3e 50 8b 38 3e cd ba 20 3e
       0.17759095 0.19596452 0.18021894 0.15696259
0002c0 ca 86 c1 bd 66 e2 8e bd fd be 69 bd 21 a3 06 bd
       -0.09449537 -0.06976776 -0.057066906 -0.032870416
0002d0 6f 14 e3 bd ec 8b 84 bd 3e ab 48 3c 09 ca b2 bc
       -0.11087882 -0.064720005 0.012247859 -0.021824853
0002e0 a6 5f c6 bd e4 df 88 bd 4d 1a 38 bd 7a 23 91 bd
       -0.09686212 -0.06683329 -0.044946957 -0.07086845
0002f0 76 0b ce bd 4e e2 01 bd 7f 47 96 bc ae 22 bc bd
       -0.1006078 -0.03170996 -0.018344639 -0.09186302
000300 cc 46 d6 bd f0 ee bd bd b9 00 7e bd 04 69 ae bd
       -0.10462722 -0.09274089 -0.062012408 -0.08516124
000310 ee 64 06 3e 12 e4 45 3e b0 54 30 3e ca 3e 54 3e
       0.13124439 0.19325283 0.17219806 0.20727077
000320 bf 39 aa bd 1f 4c 65 bd ac 5e 7d bd 11 32 45 bd
       -0.083117954 -0.055980798 -0.061857864 -0.04814345
000330 5d 0b 2e 3e 37 2d 29 3e 78 a4 5a 3e 8d 6b 39 3e
       0.16996522 0.16521154 0.21351802 0.18107434
000340 4c d7 28 3e 6c 1b 50 3e 41 55 2a 3e 5b 05 41 3e
       0.16488379 0.2032296 0.16634084 0.18849699
000350 20 54 29 3e 0d 9a 4c 3e d2 85 32 3e 88 a1 28 3e
       0.16535997 0.1998064 0.17433861 0.1646787
000360 ad c7 22 3e 9f 83 4f 3e 84 cf 53 3e 45 d8 3f 3e
       0.15896483 0.20265053 0.2068463 0.18734844
000370 68 ce 1d 3e b1 99 2b 3e 96 7f 3c 3e c3 99 3b 3e
       0.15410769 0.16757847 0.18408045 0.18320374
000380 9a 2e ee bd 46 3a e3 bc ca aa 5a bd c0 7b 69 bd
       -0.11629982 -0.027737748 -0.053385533 -0.057002783
000390 f2 c3 06 3e 7a 23 28 3e b5 c0 46 3e 51 e1 37 3e
       0.13160685 0.16419783 0.1940945 0.17957045
0003a0 25 5b 23 3e 3f 08 33 3e 70 a2 41 3e 9b 99 33 3e
       0.15952738 0.17483614 0.18909621 0.17539065
0003b0 4e bf b1 bd 55 8d 5e bd ac 7a a4 bd 65 23 a1 bd
       -0.086790666 -0.054334003 -0.0803121 -0.07868079
0003c0 1d 21 f9 3d e4 ea 3d 3e 88 97 51 3e ac 19 46 3e
       0.12164519 0.18546635 0.20467961 0.1934573
0003d0 2f 63 b8 bd 70 5c 7b bd 37 48 74 bb e5 30 3f bd
       -0.09003293 -0.061367452 -0.0037274489 -0.04667749
0003e0 2f 34 f5 bd 25 e6 32 bd 46 a6 6f bd 9f 9e a0 bd
       -0.11972844 -0.043676514 -0.05850818 -0.078427546
0003f0 0d 11 bc bd 07 25 6e bd 6f 91 db bc 6a 15 48 bd
       -0.0918294 -0.05814078 -0.026802747 -0.048848547
