models/sbi_forward_model.pth (torch, 68076 bytes, 6 tensors)

network.0.weight f4 [64, 3]
-0.35338566 -0.28952992 0.51226777 0.36675626 0.12979154 -0.4045812 -0.29752666 0.33988675
0.38241333 -0.13250639 0.4467223 -0.39225662 -0.30492714 0.13753814 0.05956461 -0.4026438
-0.29104394 0.3460226 0.32066306 -0.33290318 0.043940563 -0.31727463 -0.33301315 -0.010181577
-0.27743804 0.3890924 -0.21324454 -0.24466516 -0.15843064 0.040811628 -0.008220246 -0.46378738
0.0024071569 0.017304359 -0.29914984 0.21501845 -0.03830134 -0.42967203 -0.3416087 0.30035734
0.21751028 -0.05235577 -0.35666308 -0.015603695 -0.2868637 -0.017792698 -0.007372174 -0.49530706
-0.2371916 0.48462427 0.17791334 0.30340907 0.14553465 0.010639199 -0.22550823 -0.27857733
0.12089061 0.5306455 -0.22287364 0.49207348 0.3949841 0.06550328 0.08961765 0.057693824
0.39095378 0.2841128 -0.3925946 -0.24839465 -0.35396275 -0.500562 -0.4381348 0.32391363
0.5137938 0.21418673 0.5205996 0.46161303 0.36290994 0.25315523 -0.48695713 -0.47864103
-0.35012484 -0.004246124 -0.05752981 0.46400893 -0.08340252 -0.27296808 -0.2900002 0.15583363
0.3158833 -0.44523567 0.12222468 0.31610858 0.28320894 0.35110027 0.07924118 0.30680636
-0.23630004 0.1300474 -0.26432917 0.53443485 -0.045947097 0.18115479 0.31432283 0.06638096
-0.019554202 0.106170245 0.2479599 -0.2909904 0.007387291 0.22777197 -0.08842746 -0.39955392
-0.42857066 -0.010066607 0.2865176 -0.5482524 -0.027671559 -0.23432268 -0.3533964 0.29239276
-0.38856062 -0.31814325 -0.12032289 0.08428292 -0.048036665 0.21231657 0.3009065 0.22685286
-0.080745086 0.4123555 0.24454065 0.424037 -0.45638958 -0.14298421 -0.47866434 0.06675303
-0.02342597 -0.016804814 0.0039725923 -0.3852352 0.36839607 0.28960615 -0.28466788 -0.3853925
-0.30475074 0.0005712843 0.01522398 0.28287527 0.41589025 0.3118152 0.54772925 0.24364214
0.30171445 0.40275046 -0.08628039 -0.52935 0.027786713 -0.07734297 -0.52533686 -0.37402335
0.4679363 -0.22943142 0.31305426 -0.3028528 0.38594714 0.015831223 0.047506627 -0.4244862
0.02904551 -0.2014664 -0.20964542 0.27977705 0.15288012 0.071718715 -0.080183074 -0.17384377
0.43031725 -0.4536655 -0.3926497 -0.19471222 0.079091035 -0.11233016 0.4957652 0.11391755
0.0929331 0.5420385 -0.22815683 -0.28491637 0.15629378 -0.32892883 0.2636122 0.23858616
00000000: f7ee b4be 443d 94be fb23 033f 7ac7 bb3e
00000010: 13e8 043e 4425 cfbe 6a55 98be a305 ae3e
00000020: aecb c33e c1af 07be c9b8 e43e dcd5 c8be
00000030: 691f 9cbe ccd6 0c3e 05fa 733d 5427 cebe
00000040: b603 95be e029 b13e f32d a43e 4972 aabe
00000050: 05fb 333d d271 a2be b380 aabe a1d0 26bc
00000060: 5c0c 8ebe 1e37 c73e c75c 5abe 8189 7abe
00000070: a43b 22be 182a 273d 36ae 06bc 8a75 edbe
00000080: 64c1 1d3b dfc1 8d3c 2b2a 99be cc2d 5c3e
00000090: dee1 1cbd f9fd dbbe 56e7 aebe 70c8 993e
000000a0: 04bb 5e3e 0173 56bd 8b9c b6be a4a6 7fbc
000000b0: cddf 92be fec1 91bc 4792 f1bb e398 fdbe
000000c0: 5be2 72be ac20 f83e ea2e 363e 6f58 9b3e
000000d0: 0907 153e 0950 2e3c a1eb 66be b0a1 8ebe
000000e0: 7f95 f73d 62d8 073f fd38 64be 0ef1 fb3e
000000f0: 5b3b ca3e 9526 863d 7589 b73d 5c50 6c3d
00000100: 182b c83e 3c77 913e 2902 c9be 2b5b 7ebe
00000110: 9b3a b5be d524 00bf 3453 e0be 02d8 a53e
00000120: fe87 033f c453 5b3e 0446 053f 8b58 ec3e
00000130: 55cf b93e 909d 813e 7252 f9be 7010 f5be
00000140: 9043 b3be 1223 8bbb 61a4 6bbd 9492 ed3e
00000150: f1ce aabd 79c2 8bbe e87a 94be da92 1f3e
00000160: 75bb a13e eef5 e3be ef50 fa3d fcd8 a13e
00000170: c300 913e 6ac3 b33e 3349 a23d b915 9d3e
00000180: a3f8 71be 252b 053e 2756 87be b9d0 083f
00000190: 0633 3cbd a480 393e ecee a03e bef2 873d
000001a0: 2230 a0bc c96f d93d 33e9 7d3e b2fc 94be
000001b0: 1711 f23b 0e3d 693e 7519 b5bd 5592 ccbe
000001c0: 9d6d dbbe 69ee 24bc 6fb2 923e 455a 0cbf
000001d0: 77af e2bc 49f2 6fbe 5ff0 b4be 81b4 953e
000001e0: 6bf1 c6be ace3 a2be d96b f6bd 869c ac3d
000001f0: 18c2 44bd 8469 593e 6b10 9a3e 1e4c 683e
00000200: ae5d a5bd 4320 d33e dd68 7a3e 611b d93e
00000210: e5ab e9be 746a 12be 7e13 f5be d0b5 883d
00000220: d2e7 bfbc 40aa 89bc 852c 823b 8c3d c5be
00000230: 699e bc3e 4247 943e fdbf 91be 2a52 c5be
00000240: 4a08 9cbe 3ec2 153a 006e 793c 07d5 903e
00000250: 91ef d43e 3ea6 9f3e fc37 0c3f 537d 793e
00000260: 517a 9a3e 4f35 ce3e c6b3 b0bd 7b83 07bf
00000270: f6a0 e33c fe65 9ebd 7a7c 06bf fd7f bfbe
00000280: 5995 ef3e 12f0 6abe a648 a03e 860f 9bbe
00000290: dd9a c53e 7bb0 813c 4f96 423d 4156 d9be
000002a0: d9f0 ed3c 354d 4ebe 4aad 56be f03e 8f3e
000002b0: 9b8c 1c3e 43e1 923d 0637 a4bd 1a04 32be
000002c0: 8b52 dc3e d846 e8be 6209 c9be a462 47be
000002d0: 7bfa a13d 5b0d e6bd f0d4 fd3e 9b4d e93d
000002e0: b653 be3d 09c3 0a3f f2a1 69be 8fe0 91be
000002f0: 7a0b 203e 5c69 a8be 2ef8 863e ee4f 743e

network.0.bias f4 [64]
-0.13676107 0.32262248 0.51524484 -0.21204671 0.48830897 -0.16884898 -0.34444067 -0.23688139
0.05282018 -0.12265989 0.29111117 -0.23533534 -0.44413066 0.46673882 -0.49398834 -0.54386914
-0.13737503 -0.011711965 0.16122982 -0.16942292 0.44769946 0.0036611808 -0.23902386 -0.07482602
-0.07990162 -0.46557543 -0.46914613 -0.14262265 -0.45833182 0.25890338 -0.35275167 0.13583304
0.22527596 -0.2602885 0.12190424 0.3901368 -0.13020694 0.10484622 -0.4251712 -0.15598634
-0.20328036 -0.18747929 -0.15751268 0.017841319 -0.3869547 0.3449913 0.34110016 -0.13569386
-0.2039463 0.1147056 -0.5242445 -0.30946898 -0.22405396 -0.012551144 -0.24966183 -0.3065997
-0.5110011 -0.09372126 0.016279716 -0.26226258 -0.34685823 -0.6022252 -0.12152221 -0.55711156
00000000: 180b 0cbe c62e a53e 16e7 033f c622 59be
00000010: a203 fa3e bfe6 2cbe 875a b0be 0991 72be
00000020: f959 583d 1c35 fbbd 860c 953e bffb 70be
00000030: 1865 e3be 64f8 ee3e 0aec fcbe 023b 0bbf
00000040: 0aac 0cbe 8be3 3fbc 6e19 253e 347d 2dbe
00000050: dd38 e53e 6cf0 6f3b acc2 74be 623e 99bd
00000060: 76a3 a3bd e75f eebe ec33 f0be ac0b 12be
00000070: 78aa eabe fc8e 843e de9b b4be d117 0b3e
00000080: beae 663e 8944 85be eea8 f93d 03c0 c73e
00000090: f854 05be 9db9 d63d 0ab0 d9be e2ba 1fbe
000000a0: ba28 50be 92fa 3fbe 014b 21be f527 923c
000000b0: ed1e c6be b3a2 b03e aea4 ae3e 55f3 0abe
000000c0: 4dd7 50be c5ea ea3d e334 06bf b872 9ebe
000000d0: 676e 65be 50a3 4dbc 5aa7 7fbe a3fa 9cbe
000000e0: f8d0 02bf eff0 bfbd 0a5d 853c 4847 86be
000000f0: 6797 b1be 6e2b 1abf a3e0 f8bd dd9e 0ebf

network.3.weight f4 [128, 64]
-0.03177649 -0.08147278 -0.060185965 0.09273804 0.07762791 0.037093986 0.11419713 0.09816805
0.03496787 -0.071392976 -0.01222322 0.12250947 -0.095616005 -0.108772926 0.058998466 -0.11278383
0.014302674 0.07049352 -0.062474806 -0.11368899 0.062522694 -0.043697443 -0.026835319 -0.042254634
0.0156176705 -0.095655255 -0.06394503 0.015224642 0.0733327 -0.057531897 -0.084514946 -0.036139093
-0.09015514 0.038504094 -0.00292985 -0.13151528 0.104658805 0.07233277 -0.11994234 -0.08717612
-0.032626167 0.0863267 0.10484259 -0.0028068637 -0.10230698 -0.0077340268 -0.081803225 0.087704
-0.06703084 -0.06536909 0.027371844 -0.10136005 0.0376349 -0.0057085995 -0.022437284 0.074799895
0.10899371 -0.11127458 0.020463834 -0.08473876 -0.0884479 -0.065617055 -0.10335095 0.095317304
-0.059469618 -0.007163243 0.0055387584 0.022388933 -0.13397118 -0.0032752047 -0.0034264105 0.030203724
-0.10417201 0.078467146 -0.11253998 -0.023999339 -0.002446353 -0.093641646 -0.07559137 0.00043481737
-0.10689 -0.107742615 0.040156897 0.033690758 -0.02463018 0.066863716 -0.09089503 0.057417247
0.078356326 -0.070237756 0.06716032 0.02979213 -0.11831672 0.06029975 -0.014523673 -0.0112296585
-0.03641756 -0.013057577 -0.103071555 0.02618536 0.050001133 -0.03230312 -0.078338765 -0.013095043
-0.09686814 0.00554679 0.0808627 -0.049745746 0.04265112 0.05058198 -0.08304568 -0.027146652
0.011976306 -0.10857873 -0.10168598 -0.12633121 -0.014711802 0.020257829 -0.08363284 0.027737789
-0.016304951 0.012899242 0.058162756 0.037420493 0.051662166 -0.027676344 0.003644903 0.06601937
0.008641144 0.0040840944 -0.011784765 -0.0179154 0.020826591 -0.10432151 0.06640607 -0.12231521
0.010213395 0.0874077 0.0089301355 0.00709795 0.07699055 -0.06172499 -0.03190318 -0.1038177
-0.11030104 -0.06548003 -0.042751364 -0.10441996 0.011990736 0.0487693 0.10209197 -0.09623686
-0.010347612 0.05002721 -0.011766763 0.024868907 0.08782214 -0.09752716 -0.09845064 -0.00082113134
0.028328981 -0.06678153 0.054657746 -0.0053148437 0.06512669 -0.09186248 -0.05725069 0.020294206
0.11257612 0.069829985 -0.035775367 -0.104452364 -0.06705621 -0.01311673 0.05534269 -0.0047669075
-0.00016561734 -0.0785556 0.08866794 -0.023400253 -0.08963777 0.08854316 0.0070907692 -0.013254707
-0.07660776 0.01382444 0.048139602 -0.11059089 -0.049877364 0.07895508 0.10319465 -0.09335218
0.097871 -0.032285362 -0.1066164 -0.051268596 -0.11765519 -0.116285756 -0.03148772 0.04854399
-0.06415823 0.106294416 0.08367883 -0.1280909 -0.037743762 0.06602731 -0.043799363 0.06297795
0.07562608 -0.06866097 -0.027376167 -0.07143344 0.022090016 -0.0012519476 -0.081453525 0.09376256
-0.019384585 -0.13146046 0.080334924 -0.062311947 -0.04673927 -0.068827 -0.0356075 0.005237607
-0.0025065606 -0.054224864 -0.08597234 0.05358794 -0.030022366 -0.12138104 0.03879293 -0.043433577
-0.08197674 -0.0758735 -0.08512065 -0.051398024 -0.049325813 0.02614722 0.008593607 0.018911347
-0.031328652 0.078853585 0.061003767 -0.036638066 0.073880635 -0.05899805 0.021940175 -0.067569256
-0.11528087 -0.01041692 -0.09968283 -0.021504581 0.06403041 -0.039254196 0.0117791975 -0.04493101
00000000: 1128 02bd 33db a6bd 8f85 76bd 71ed bd3d
00000010: 62fb 9e3d ddef 173d 2fe0 e93d 550c c93d
00000020: 783a 0f3d 7b36 92bd e743 48bc 3fe6 fa3d
00000030: 53d2 c3bd 57c4 debd 60a8 713d 35fb e6bd
00000040: c355 6a3c e85e 903d 95e5 7fbd c6d5 e8bd
00000050: e60b 803d 17fc 32bd bed5 dbbc 3213 2dbd
00000060: 42e1 7f3c e7e6 c3bd 9df5 82bd c770 793c
00000070: 742f 963d 91a6 6bbd 2c16 adbd 9606 14bd
00000080: 42a3 b8bd 78b6 1d3d ba02 40bb f1ab 06be
00000090: 5b57 d63d 3423 943d 54a4 f5bd 6589 b2bd
000000a0: 04a3 05bd 0ecc b03d b6b7 d63d 5cf3 37bb
000000b0: 5286 d1bd b86d fdbb 7388 a7bd 289e b33d
000000c0: 7747 89bd 3be0 85bd eb3a e03c dc95 cfbd
000000d0: 0e27 1a3d 340f bbbb 65ce b7bc b030 993d
000000e0: 1838 df3d ede3 e3bd c5a3 a73c 848b adbd
000000f0: 2c24 b5bd 3c62 86bd aaa9 d3bd b835 c33d
00000100: 6a96 73bd a3b9 eabb 797e b53b ff68 b73c
00000110: be2f 09be d1a4 56bb a18d 60bb cd6d f73c
00000120: 2358 d5bd 62b3 a03d 5c7b e6bd 439a c4bc
00000130: fe52 20bb 31c7 bfbd a6cf 9abd 33f8 e339
00000140: 25e9 dabd 29a8 dcbd 8f7b 243d 52ff 093d
00000150: 3bc5 c9bc d8ef 883d 2c27 babd 592e 6b3d
00000160: 4879 a03d d0d8 8fbd 5a8b 893d a00e f43c
00000170: 0950 f2bd dffc 763d b3f4 6dbc 9afc 37bc
00000180: 942a 15bd 73ef 55bc 2e17 d3bd ae82 d63c
00000190: fdcd 4c3d 4750 04bd 1370 a0bd 978c 56bc
000001a0: ce62 c6bd d9c1 b53b 589b a53d 32c2 4bbd
000001b0: f1b2 2e3d 0d2f 4f3d da13 aabd a862 debc
000001c0: 4538 443c 865e debd bd40 d0bd f85c 01be
000001d0: c509 71bc bff3 a53c b247 abbd 5c3a e33c
000001e0: f691 85bc 5857 533c 123c 6e3d 3b46 193d
000001f0: b59b 533d 80b9 e2bc 53df 6e3b 2a35 873d
00000200: 9693 0d3c ded3 853b e314 41bc 51c3 92bc
00000210: 879c aa3c 84a6 d5bd e8ff 873d 6680 fabd
00000220: 1556 273c cf02 b33d b44f 123c ec95 e83b
00000230: 39ad 9d3d 58d3 7cbd e9ac 02bd 609e d4bd
00000240: 83e5 e1bd 651a 86bd 0e1c 2fbd 22da d5bd
00000250: cb74 443c 51c2 473d 9815 d13d d517 c5bd
00000260: 0889 29bc 55e9 4c3d 62c9 40bc e1b9 cb3c
00000270: 18dc b33d 52bc c7bd 7da0 c9bd 3141 57ba
00000280: 2e12 e83c c1c4 88bd cde0 5f3d 2428 aebb
00000290: 2461 853d 6522 bcbd b37f 6abd 0940 a63c
000002a0: 4f8e e63d 0603 8f3d 3189 12bd 1feb d5bd
000002b0: c454 89bd 8ee7 56bc 04af 623d b833 9cbb
000002c0: 91a9 2db9 c2e1 a0bd 8997 b53d e3b1 bfbc
000002d0: 0294 b7bd 1e56 b53d af59 e83b 452a 59bc
000002e0: 87e4 9cbd e77f 623c 082e 453d 7a7d e2bd
000002f0: 354c 4cbd 33b3 a13d b757 d33d 6e2f bfbd
00000300: 9770 c83d a83d 04bd b359 dabd 05ff 51bd
00000310: 34f5 f0bd 3a27 eebd 44f9 00bd 10d6 463d
00000320: 6465 83bd e3b0 d93d ce5f ab3d 432a 03be
00000330: 3499 1abd 5439 873d f666 33bd 95fa 803d
00000340: d9e1 9a3d 1f9e 8cbd fc43 e0bc b24b 92bd
00000350: 1ff6 b43c 6418 a4ba 1bd1 a6bd 9606 c03d
00000360: 6ccc 9ebc 929d 06be a386 a43d d03a 7fbd
00000370: ad71 3fbd 2cf5 8cbd 2bd9 11bd 3ba0 ab3b
00000380: 1c45 24bb e41a 5ebd 4412 b0bd 077f 5b3d
00000390: 77f1 f5bc 9f96 f8bd 56e5 1e3d 68e7 31bd
000003a0: 6ce3 a7bd 9163 9bbd bc53 aebd bc86 52bd
000003b0: dd09 4abd b232 d63c 33cc 0c3c f8eb 9a3c
000003c0: 7952 00bd fd7d a13d 16df 793d cc11 16bd
000003d0: bb4e 973d f0a7 71bd e2bb b33c c061 8abd
000003e0: 6018 ecbd bbab 2abc 8326 ccbd 602a b0bc
000003f0: 6022 833d 02c9 20bd 89fd 403c 9409 38bd

network.3.bias f4 [128]
-0.0031252555 0.063163705 -0.032803606 -0.06117404 -0.14784037 -0.0646477 -0.10549549 0.016142225
-0.1530647 -0.0035555551 0.06668357 -0.055388894 -0.021202102 0.040742233 -0.0774086 -0.10581034
-0.00816288 0.06410343 0.055020534 0.028154796 -0.11208149 -0.12719029 0.03224732 -0.010944685
0.054844398 -0.10673461 -0.0892306 -0.033921156 -0.13761911 -0.13349044 -0.033799473 -0.083612606
-0.09469579 0.055134512 0.028997103 -0.0893832 -0.0399933 -0.13319342 -0.06597607 -0.10464178
0.06661921 -0.05100383 -0.10065467 -0.0015776425 0.02627121 -0.16136473 -0.13760579 -0.043235887
-0.060337633 -0.038910903 0.09912845 0.030150358 0.028244099 -0.019125527 -0.0648463 -0.07705302
-0.13189924 -0.0029951856 -0.026761409 0.06394542 -0.06918002 -0.04715867 0.0069738375 0.051493354
0.039063778 0.049491607 0.020463483 -0.0129596675 0.026388835 -0.12500425 -0.007945628 0.040743396
-0.11540836 -0.106168844 -0.034996882 0.033316612 -0.074296154 0.055402424 -0.09717876 -0.10210368
0.056691773 -0.09282762 0.014892762 -0.05096029 -0.11721423 -0.0036044903 0.025473252 -0.081586435
0.029747827 0.030178199 -0.02140113 0.027577242 0.008775513 0.054843146 -0.0022462928 0.066557914
-0.09002212 -0.081870675 -0.064027674 0.06504822 -0.12951376 -0.13792431 -0.11116646 0.04705089
0.010117958 0.004621427 -0.040254295 -0.0045778933 -0.07190673 -0.020184822 -0.11208801 0.07272033
-0.14819711 -0.10173848 -0.020610854 -0.081663065 -0.09971773 -0.1189227 -0.027359948 -0.011592036
0.07102842 -0.14005578 -0.08667469 -0.04163187 0.054963905 -0.032384243 -0.04622626 -0.13282698
00000000: 16d1 4cbb f95b 813d 135d 06bd a191 7abd
00000010: 7763 17be 0366 84bd 050e d8bd b33c 843c
00000020: febc 1cbe 5104 69bb 6591 883d 77df 62bd
00000030: 08b0 adbc 54e1 263d 6688 9ebd 17b3 d8bd
00000040: 9abd 05bc a948 833d 365d 613d e3a4 e63c
00000050: fb8a e5bd 2c3e 02be c415 043d 5651 33bc
00000060: 85a4 603d ad97 dabd 88be b6bd e9f0 0abd
00000070: 06ec 0cbe b8b1 08be 5171 0abd 163d abbd
00000080: deef c1bd bad4 613d 558b ed3c 8a0e b7bd
00000090: 04d0 23bd db63 08be 761e 87bd 6e4e d6bd
000000a0: a76f 883d 64e9 50bd 0924 cebd e6c8 ceba
000000b0: b836 d73c cc3c 25be 88e8 0cbe 1d18 31bd
000000c0: 9824 77bd 0a61 1fbd db03 cb3d e2fd f63c
000000d0: 2b60 e73c 23ad 9cbc 23ce 84bd f9cd 9dbd
000000e0: 9810 07be e04a 44bb be3a dbbc d1f5 823d
000000f0: 41ae 8dbd 7329 41bd ca84 e43b b2ea 523d
00000100: 5701 203d b6b7 4a3d 09a3 a73c c954 54bc
00000110: 662d d83c 1d01 00be 612e 02bc 8ce2 263d
00000120: 385b ecbd 0d6f d9bd e458 0fbd 0077 083d
00000130: 9528 98bd a7ed 623d a805 c7bd bc1b d1bd
00000140: a235 683d 681c bebd c500 743c bdbb 50bd
00000150: 040e f0bd 5039 6cbb 48ad d03c ca16 a7bd
00000160: b7b1 f33c 4538 f73c 6c51 afbc abe9 e13c
00000170: 2bc7 0f3c 35a3 603d 8a36 13bb 844f 883d
00000180: 845d b8bd d0ab a7bd f120 83bd 0038 853d
00000190: 419f 04be 083c 0dbe 3eab e3bd 6fb8 403d
000001a0: cbc5 253c 576f 973b b0e1 24bd 2702 96bb
000001b0: d643 93bd a45a a5bc 668e e5bd 65ee 943d
000001c0: fcc0 17be 445c d0bd 18d8 a8bc f73e a7bd
000001d0: cf38 ccbd bf8d f3bd f821 e0bc 86ec 3dbc
000001e0: 5977 913d c86a 0fbe 8082 b1bd 2e86 2abd
000001f0: d521 613d 57a5 04bd bf57 3dbd cc03 08be

network.6.weight f4 [60, 128]
-0.072849795 -0.07108153 -0.0022738075 0.0043719583 -0.059138015 0.0028589743 -0.0041930694 0.0018981467
-0.08353089 0.04293228 -0.0312597 -0.027551664 0.03341402 -0.060807 0.017481776 -0.014977582
0.04234845 0.030608246 -0.06385696 0.019518103 -0.0844809 -0.05813927 -0.031388566 0.051213987
-0.039371334 -0.03971675 -0.0213995 -0.057418656 0.008621612 -0.060305562 0.0855298 0.039916314
-0.0018842622 -0.01300228 -0.02904857 -0.062009085 0.07260565 0.056523316 -0.013987568 -0.053610355
0.033147134 0.0025839268 -0.0023347933 -0.0027465003 0.079092644 -0.061330985 -0.06461038 0.042775262
0.006201146 0.071860105 0.05581342 0.063475244 -0.057734907 0.0049054134 -0.07720202 0.017267969
-0.040527184 0.025160125 -0.02321814 0.011437119 0.048572864 -0.057782046 0.030177148 0.06920337
-0.005747426 0.007165471 -0.06805446 0.054412074 0.031733852 0.0629496 -0.037100192 -0.021998182
0.008516705 -0.016701043 0.0004887345 0.02041066 0.011962585 -0.016860018 0.05839522 -0.04094695
-0.012991404 0.029133206 0.037060767 -0.023629518 -0.005485019 0.008204112 -0.0369589 -0.052892137
-0.031686753 0.05870481 0.004395869 -0.08194606 0.008971705 0.054969285 0.03796187 0.029480085
0.030265907 0.057129193 -0.039301656 -0.011035727 -0.009214486 0.06989464 -0.050244424 -0.040785894
-0.01705411 -0.010649333 -0.047846995 -0.07340168 0.06857637 0.008023658 -0.031417277 0.004722939
0.018525219 0.03765679 0.054819338 -0.028425518 -0.012127679 0.060176753 0.008517877 -0.059584647
-0.019493116 -0.050641514 -0.04195543 -0.042149108 0.032337498 -0.021810673 -0.06549455 -0.043065965
-0.046705183 0.040219337 0.020963002 -0.003659653 0.0014638772 -0.0036016009 -0.07255329 0.043159675
0.053535324 -0.00074235885 0.028553253 0.059112452 -0.0072321934 -0.027795585 -0.044384997 -0.007911627
0.050105505 -0.050707463 -0.0654149 -0.05187339 -0.025417713 0.06243458 -0.068536684 -0.020618783
-0.030696407 0.03242711 0.06728558 -0.029534929 0.010922932 0.06154293 0.04326236 0.07481454
0.05662399 0.010363555 -0.069595814 -0.07178492 -0.039431363 -0.047389884 -0.059012063 -0.050038274
0.024653373 -0.091694474 0.0021938838 -0.0025693034 0.0033965397 0.009093238 0.0031039508 -0.034831755
-0.020594517 0.03567786 -0.020760244 0.049504273 0.042824164 0.039619956 0.06328478 0.042590063
0.009175811 0.020638315 -0.061242364 0.04416071 -0.012466125 -0.05566613 0.0027627419 0.058250185
0.0726789 0.008979179 -0.060694072 -0.075012326 -0.004137601 -0.058377337 0.0015469753 -0.01619433
0.03167247 -0.02937937 -0.011583208 0.04469006 0.003936595 -0.091814555 -0.020516073 0.034575433
-0.04130894 -0.07193431 0.06726301 -0.0012026054 -0.05850606 -0.007912602 0.0358926 -0.003894043
-0.062051862 -0.025990661 -0.08243063 -0.02453916 -0.058544442 0.0426304 0.04094629 0.03236311
-0.021968199 0.025501676 -0.081055015 -0.023476684 -0.018133124 -0.08000429 0.038168512 -0.031919174
0.03692673 0.011982496 0.061369814 0.04766977 0.038209137 -0.02964164 -0.02757544 -0.022694668
-0.011121147 0.031765565 0.043140758 0.018631821 0.050855234 -0.0059320563 -0.004211674 -0.07176142
-0.01603857 -0.02240887 -0.01622103 -0.012202319 -0.016697925 -0.053558033 0.022293143 0.027574921
00000000: 4632 95bd 3193 91bd 2904 15bb a542 8f3b
00000010: b43a 72bd a15d 3b3b 0466 89bb 3ccb f83a
00000020: 3e12 abbd c2d9 2f3d 2c0a 00bd 07b4 e1bc
00000030: 24dd 083d c310 79bd f135 8f3c 8864 75bc
00000040: 9175 2d3d 25be fa3c 70c7 82bd 6ee4 9f3c
00000050: 5204 adbd 7123 6ebd 4c91 00bd c2c5 513d
00000060: d643 21bd 08ae 22bd 014e afbc d32f 6bbd
00000070: a941 0d3c f702 77bd 3f2a af3d 4a7f 233d
00000080: 59f9 f6ba 8407 55bc 44f7 edbc 3dfd 7dbd
00000090: 45b2 943d fe84 673d 1d2c 65bc 8896 5bbd
000000a0: 4ac5 073d 1957 293b 5503 19bb a1fe 33bb
000000b0: 53fb a13d 3336 7bbd 7252 84bd 1d35 2f3d
000000c0: fc32 cb3b 642b 933d 9d9c 643d 4fff 813d
000000d0: 707b 6cbd 97bd a03b 181c 9ebd 8e75 8d3c
000000e0: d5ff 25bd 9b1c ce3c f833 bebc c162 3b3c
000000f0: 57f4 463d deac 6cbd 1136 f73c 7fba 8d3d
00000100: e754 bcbb 54cc ea3b 2360 8bbd 32df 5e3d
00000110: 5bfb 013d b8eb 803d 5ff6 17bd 8835 b4bc
00000120: a689 0b3c a0d0 88bc 6b1e 003a 4234 a73c
00000130: b8fe 433c 051e 8abc d42f 6f3d fdb7 27bd
00000140: e6d9 54bc c3a8 ee3c 08cd 173d b192 c1bc
00000150: adbb b3bb 8a6a 063c 3762 17bd 6da5 58bd
00000160: f8c9 01bd 7474 703d 390b 903b 56d3 a7bd
00000170: 0ffe 123c 7927 613d e87d 1b3d 3880 f13c
00000180: 35f0 f73c 4d00 6a3d c6fa 20bd 32cf 34bc
00000190: 5bf8 16bc ec24 8f3d 19cd 4dbd 1c0f 27bd
000001a0: 10b5 8bbc 8a7a 2ebc 36fb 43bd 9f53 96bd
000001b0: c571 8c3d a975 033c 67af 00bd e2c2 9a3b
000001c0: 33c2 973c 023e 1a3d 3e8a 603d a2dc e8bc
000001d0: 2cb3 46bc e67b 763d 918e 0b3c 080f 74bd
000001e0: 07b0 9fbc 7a6d 4fbd 75d9 2bbd 8ba4 2cbd
000001f0: 5374 043d 4cac b2bc 0222 86bd f065 30bd
00000200: ef4d 3fbd 08bd 243d 9aba ab3c cad6 6fbb
00000210: 91df bf3a d608 6cbb d296 94bd 33c8 303d
00000220: db47 5b3d dc9a 42ba 83e8 e93c e61f 723d
00000230: 09fc ecbb 91b3 e3bc 0bcd 35bd c59f 01bc
00000240: 6e3b 4d3d a1b2 4fbd 3ff8 85bd 3179 54bd
00000250: cf38 d0bc 67bb 7f3d f65c 8cbd b9e8 a8bc
00000260: 0877 fbbc 4ad2 043d 06cd 893d 3cf3 f1bc
00000270: 19f6 323c 7014 7c3d df33 313d 5e38 993d
00000280: 8fee 673d e6cb 293c 4088 8ebd f903 93bd
00000290: c882 21bd e51b 42bd a2b6 71bd eff4 4cbd
000002a0: dff5 c93c 50ca bbbd 43c7 0f3b c261 28bb
000002b0: 7b98 5e3b cefb 143c a76b 4b3b beab 0ebd
000002c0: d5b5 a8bc f322 123d 6311 aabc fec4 4a3d
000002d0: 6468 2f3d 8948 223d 739b 813d eb72 2e3d
000002e0: 2456 163c af11 a93c 46d9 7abd dce1 343d
000002f0: b83e 4cbc 2b02 64bd 1e0f 353b bf97 6e3d
00000300: add8 943d 681d 133c 599a 78bd 10a0 99bd
00000310: b694 87bb 131d 6fbd e1c3 ca3a f9a9 84bc
00000320: feba 013d 01ad f0bc 7fc7 3dbc ed0c 373d
00000330: 8dfe 803b 4509 bcbd 5311 a8bc f89e 0d3d
00000340: 9033 29bd 4c52 93bd 30c1 893d bea0 9dba
00000350: 0da4 6fbd dca3 01bc 1e04 133d 3333 7fbb
00000360: 182a 7ebd 5eea d4bc 64d1 a8bd 5906 c9bc
00000370: 4ccc 6fbd 379d 2e3d 4cb7 273d 2e8f 043d
00000380: a7f6 b3bc e4e8 d03c 2c00 a6bd 2d52 c0bc
00000390: eb8b 94bc 4ad9 a3bd 9656 1c3d aebd 02bd
000003a0: 7c40 173d 3b52 443c ea5e 7b3d 6041 433d
000003b0: 2f81 1c3d 06d3 f2bc e4e5 e1bc 2bea b9bc
000003c0: 7935 36bc 9c1c 023d 5db4 303d c3a1 983c
000003d0: 944d 503d b261 c2bb 1502 8abb a7f7 92bd
000003e0: 5263 83bc ce92 b7bc f7e1 84bc 3cec 47bc
000003f0: 16ca 88bc ab5f 5bbd 1ca0 b63c cde4 e13c

network.6.bias f4 [60]
0.00070325466 0.00097374804 -0.00088611664 -0.00028937394 0.00022380559 7.439184e-05 0.004241475 0.0011837939
-0.00042911703 0.0002520835 4.5825785e-05 0.0008536431 -0.0014807835 -0.000569215 8.269178e-05 0.0027457324
-0.00038239383 0.0025102298 0.00021846699 -8.51135e-05 -0.00054402446 0.0008791174 -0.0020371487 -0.000107047956
-0.0011540129 0.0002837081 0.0002403567 -3.7398848e-05 0.0011306811 0.00052441435 -4.0217932e-05 -0.0010949058
0.0015803613 0.00075990625 0.0016444048 -0.0048719817 -0.001434947 -0.00037198895 -0.0009919067 -0.0013153717
-0.0007349127 -0.0014036978 0.00057958765 0.00081761583 0.0007961784 0.00021478019 0.004897031 0.0031344271
0.0018557936 -0.0006041794 -0.00045868495 -0.0013342539 0.00025864225 -1.4817215e-05 0.001431239 -0.0001570234
0.0005891035 0.00026549105 0.00044295302 -0.0014241001
00000000: 9f5a 383a 2043 7f3a 484a 68ba 1db7 97b9
00000010: 5bad 6a39 d102 9c38 12fc 8a3b 8829 9b3a
00000020: 1dfb e0b9 132a 8439 1035 4038 05c7 5f3a
00000030: d916 c2ba 5f37 15ba d06a ad38 bff1 333b
00000040: 087c c8b9 ab82 243b 4914 6539 f67e b2b8
00000050: dd9c 0eba 9274 663a af81 05bb ef7e e0b8
00000060: 3f42 97ba a8be 9439 4308 7c39 b5dc 1cb8
00000070: 5d33 943a da78 093a adaf 28b8 f182 8fba
00000080: 2024 cf3a 7234 473a 1289 d73a 25a5 9fbb
00000090: d514 bcba 8307 c3b9 de02 82ba 8d68 acba
000000a0: 28a7 40ba 48fc b7ba 78ef 173a 4555 563a
000000b0: a1b6 503a 9e36 6139 4677 a03b f66a 4d3b
000000c0: 1a3e f33a cb61 1eba a77b f0b9 22e2 aeba
000000d0: 609a 8739 7497 78b7 6998 bb3a a6a6 24b9
000000e0: 116e 1a3a 9b31 8b39 263c e839 dfa8 baba
