models/sbi_forward_model.pth (torch, 27372 bytes, 6 tensors)

network.0.weight f4 [32, 3]
-0.3934068 0.16934505 -0.3125262 -0.036761563 0.37188235 -0.35442093 -0.15985903 0.42017007
-0.15707201 -0.28065914 -0.12093805 0.29226327 -0.389595 -0.42608482 -0.39817202 -0.2264767
-0.31001604 0.049731486 -0.32514897 0.562095 -0.116184905 -0.32687956 -0.32600108 -0.11474738
-0.09462157 0.25331405 -0.1573744 -0.39182916 0.26362315 -0.3540794 0.19943377 -0.18846002
0.26538208 0.42605188 0.312973 0.30204803 -0.111600734 -0.5176646 -0.06570159 0.34493423
-0.3688868 0.3644835 -0.35559583 -0.27573717 0.004056304 0.43474814 -0.3032543 0.2733518
-0.3684865 0.061325848 0.023212023 0.47213864 0.3846615 0.37649712 0.14803642 0.3509476
0.46491063 0.001997774 -0.11792687 -0.4540245 0.46467033 -0.28751558 0.25541005 -0.5347185
0.40813956 -0.4913848 -0.15262279 -0.26300535 -0.1873339 -0.12711686 0.37496042 0.4152069
0.25553703 0.18375868 0.4531362 0.054391306 -0.26015475 0.1572977 -0.4287723 -0.26091066
-0.1861424 -0.32576865 0.2512203 -0.15624662 -0.29446507 -0.24431202 -0.34501895 0.3554602
-0.26513138 -0.3358455 -0.094874986 0.067476444 -0.12955366 -0.33045474 0.10440004 -0.12797703
00000000: 9e6c c9be ca68 2d3e 6f03 a0be 4b93 16bd
00000010: 5d67 be3e a976 b5be 16b2 23be 8820 d73e
00000020: 7cd7 20be 8eb2 8fbe 5eae f7bd 88a3 953e
00000030: ff78 c7be ca27 dabe 34dd cbbe 82e9 67be
00000040: 6cba 9ebe 3eb3 4b3d ed79 a6be 75e5 0f3f
00000050: 5af2 edbd c25c a7be 9de9 a6be ad00 ebbd
00000060: f4c8 c1bd 61b2 813e c126 21be d59d c8be
00000070: 9df9 863e e549 b5be 5e38 4c3e aafb 40be
00000080: 29e0 873e 7923 da3e ff3d a03e 0aa6 9a3e
00000090: ed8e e4bd ab85 04bf 8e8e 86bd 389b b03e
000000a0: bbde bcbe 959d ba3e a810 b6be 6c2d 8dbe
000000b0: bfea 843b 4f97 de3e 2644 9bbe c4f4 8b3e
000000c0: 43aa bcbe d030 7b3d 2427 be3c 28bc f13e
000000d0: 5af2 c43e 3bc4 c03e dc96 173e 67af b33e
000000e0: c408 ee3e 16ed 023b a583 f1bd e675 e8be
000000f0: 45e9 ed3e 3e35 93be 1bc5 823e 50e3 08bf
00000100: abf7 d03e ca96 fbbe 2649 1cbe a3a8 86be
00000110: 75d4 3fbe ec2a 02be d0fa bf3e 0096 d43e
00000120: c0d5 823e 3c2b 3c3e 7801 e83e 6bc9 5e3d
00000130: 0133 85be a612 213e 0b88 dbbe 1596 85be
00000140: 1d9c 3ebe 26cb a6be f29f 803e 1dff 1fbe
00000150: 20c4 96be ee2c 7abe 53a6 b0be e1fe b53e
00000160: 4dbf 87be f1f3 abbe d14d c2bd 1731 8a3d
00000170: b7a9 04be 5d31 a9be b0cf d53d 690c 03be

network.0.bias f4 [32]
0.40920985 0.1404616 0.06325688 -0.4695593 0.101085946 -0.040098615 -0.27880266 0.44678032
-0.22488366 0.26950145 -0.5728871 -0.053148124 -0.22800371 0.12691431 0.3990147 -0.5589319
-0.24089462 -0.47613204 0.587361 0.10249847 0.45576864 0.26615667 0.36931264 -0.47046962
-0.42680094 0.18549637 0.36553136 -0.2660998 -0.4531332 -0.08895196 -0.0008706308 -0.39848343
00000000: f483 d13e 2ad5 0f3e d38c 813d 146a f0be
00000010: 2606 cf3d 723e 24bd 39bf 8ebe 64c0 e43e
00000020: e747 66be 18fc 893e bba8 12bf d9b1 59bd
00000030: ce79 69be d3f5 013e a84b cc3e 2916 0fbf
00000040: 14ad 76be 94c7 f3be 4a5d 163f b8ea d13d
00000050: 825a e93e b045 883e 8c16 bd3e 65e1 f0be
00000060: a785 dabe c3f2 3d3e ed26 bb3e 3c3e 88be
00000070: 1301 e8be 722c b6bd 0b3b 64ba 0506 ccbe

network.3.weight f4 [64, 32]
-0.019828452 -0.15796947 -0.017420348 -0.0428574 -0.07911321 0.014695025 -0.10527874 0.07275004
-0.0280758 -0.09222116 0.09314078 -0.11575758 -0.05216223 0.0054672128 0.05991466 0.027384361
0.12426287 -0.15295778 -0.14681004 -0.07505999 -0.14777322 -0.19316015 -0.0650173 0.05234644
0.0171007 0.0053817183 -0.09557085 -0.10805321 -0.03587298 -0.18173443 -0.17621146 0.11621905
-0.13418767 0.07257448 0.0595202 -0.097874515 -0.076789066 -0.007463241 -0.15054409 -0.065230325
-0.13628675 -0.03407831 -0.16698734 -0.16817337 -0.13796788 0.040521044 0.046702754 0.02970346
0.10802658 -0.030275447 0.1422078 0.095106654 -0.11415274 -0.109155186 0.090716995 -0.07361146
-0.13456014 -0.17368032 0.06994448 0.04621888 -0.07782827 0.013108629 0.05083955 0.14477602
0.026334407 0.06034488 0.02262961 -0.03353651 -0.15153278 0.027248645 -0.14518888 -0.12683871
-0.17537366 -0.07857979 -0.008109169 -0.12507235 -0.10642492 0.11256127 -0.13609934 -0.0021051262
0.03136135 -0.04155433 -0.1296774 -0.016337942 -0.07383077 0.046641145 0.055157106 0.14493713
-0.18699194 -0.059627444 -0.008905497 0.011221009 -0.04596584 -0.035134595 -0.11108716 0.12376901
-0.19907966 -0.11567445 0.072790086 -0.13239564 0.06339681 -0.21025367 0.10405545 0.08815405
-0.13646987 0.09934899 0.0472297 -0.1474738 0.057274647 -0.0198731 0.08845648 0.0014408401
0.022867855 0.1289068 -0.06818387 -0.19684224 -0.18884838 -0.15395568 -0.08437553 0.062566
0.085255146 0.07149452 0.0058894376 0.06592462 -0.11414256 -0.15075491 -0.13162364 -0.05833638
-0.10462456 -0.022827981 -0.16996133 -0.020126306 0.045057133 0.13530178 0.09476946 -0.005136255
-0.053381786 -0.15098792 -0.019068286 -0.06860818 0.0975138 0.04914448 -0.06441335 -0.10159384
-0.018743457 0.13778919 -0.062287893 -0.09784244 -0.044438276 -0.1570496 0.1008004 -0.15266669
-0.09085582 -0.07910208 -0.13657679 -0.022679538 -0.0889925 -0.15501529 0.16459955 -0.04526262
-0.044768292 0.07522272 -0.16869482 -0.10485492 0.061422803 -0.09931788 -0.12555198 0.030737113
0.12783769 0.1008084 0.04433573 0.031430442 0.010260909 0.023074875 -0.022114247 -0.11332814
-0.07960994 -0.10891496 0.035568506 -0.08383219 0.08613853 0.019785913 -0.03652502 -0.050248113
-0.13331966 -0.1704763 0.016466813 -0.09767349 -0.17183158 0.06521869 -0.17375478 0.1406595
0.06843941 -0.02559346 0.0073326994 0.015652265 0.035375487 -0.14661634 -0.079879746 -0.09260562
0.09988339 -0.038540736 -0.09168575 0.054831244 -0.06794494 -0.011180722 0.109325804 -0.13476594
-0.1330259 -0.04704703 0.09677185 -0.04162892 -0.1599197 -0.06465528 0.090036795 0.02573422
-0.02282107 0.082680725 0.09760888 -0.111409806 -0.11397066 0.10023022 0.04077487 -0.046351664
-0.07055069 0.08763042 0.098968506 -0.009435704 -0.120456606 -0.070680805 0.06720448 0.10166772
0.07735594 -0.11639447 0.1295252 -0.06783238 -0.11666853 -0.09683764 0.16176373 -0.018017929
-0.02313235 0.034351155 0.013661735 -0.09234613 0.065495804 -0.059903312 0.15940668 -0.17167006
-0.028555533 -0.10284356 -0.03962672 -0.023526216 0.07312647 -0.12589847 -0.00020711994 0.06701858
00000000: 476f a2bc c0c2 21be 1eb5 8ebc 3e8b 2fbd
00000010: 1b06 a2bd 67c3 703c 619c d7bd f9fd 943d
00000020: 38ff e5bc 73de bcbd 98c0 be3d 4f12 edbd
00000030: 10a8 55bd 4e26 b33b 1369 753d 2b55 e03c
00000040: 887d fe3d f7a0 1cbe 5f55 16be 0db9 99bd
00000050: dd51 17be c6cb 45be ca27 85bd 3869 563d
00000060: c416 8c3c 2059 b03b a6ba c3bd 004b ddbd
00000070: 8cef 12bd 9718 3abe c770 34be 4104 ee3d
00000080: 7e68 09be eea1 943d 74cb 733d 6f72 c8bd
00000090: 9643 9dbd 348e f4bb 3b28 1abe 7a97 85bd
000000a0: c18e 0bbe b395 0bbd bbfe 2abe a435 2cbe
000000b0: 7447 0dbe 65f9 253d 634b 3f3d ac54 f33c
000000c0: 0a3d dd3d 3704 f8bc ec9e 113e 47c7 c23d
000000d0: e9c8 e9bd c18c dfbd d5c9 b93d 9bc1 96bd
000000e0: 22ca 09be 41d9 31be 0d3f 8f3d 0250 3d3d
000000f0: 6e64 9fbd 93c5 563c 223d 503d 2a40 143e
00000100: 41bb d73c 312c 773d bb61 b93c 945d 09bd
00000110: 692b 1bbe 8d38 df3c 65ac 14be 02e2 01be
00000120: 2795 33be 71ee a0bd 52dc 04bc f712 00be
00000130: 4ff5 d9bd 8686 e63d a05d 0bbe 28f6 09bb
00000140: c274 003d e034 2abd 27ca 04be 26d7 85bc
00000150: 9634 97bd c90a 3f3d 6bec 613d 666a 143e
00000160: d17a 3fbe e83b 74bd 5de8 11bc 53d8 373c
00000170: ad46 3cbd 4be9 0fbd aa81 e3bd 9b7a fd3d
00000180: 8adb 4bbe bae6 ecbd f812 953d b992 07be
00000190: 30d6 813d bd4c 57be 061b d53d 1c8a b43d
000001a0: c2be 0bbe 7c77 cb3d ee73 413d 5f03 17be
000001b0: d298 6a3d e9cc a2bc ac28 b53d 92da bc3a
000001c0: 5e55 bb3c 2500 043e fca3 8bbd 0391 49be
000001d0: 7861 41be 8fa6 1dbe 14cd acbd 9a22 803d
000001e0: 409a ae3d b86b 923d 2ffc c03b 7d03 873d
000001f0: 93c3 e9bd 7f5f 1abe 59c8 06be 21f2 6ebd
00000200: 6745 d6bd bf01 bbbc 580a 2ebe ecdf a4bc
00000210: d48d 383d 8d8c 0a3e 7e16 c23d 084e a8bb
00000220: dca6 5abd 949c 1abe 1835 9cbc 7282 8cbd
00000230: 51b5 c73d b94b 493d 25eb 83bd 6e10 d0bd
00000240: e18b 99bc 9c18 0d3e 9721 7fbd 9e61 c8bd
00000250: e904 36bd 9cd1 20be 7170 ce3d a854 1cbe
00000260: 9e12 babd 4500 a2bd c9da 0bbe 70ca b9bc
00000270: b341 b6bd 54bc 1ebe c98c 283e 4c65 39bd
00000280: f55e 37bd 5f0e 9a3d 56be 2cbe 2dbe d6bd
00000290: 7a96 7b3d 2c67 cbbd b390 00be 66cc fb3c
000002a0: e2e7 023e a274 ce3d 6299 353d 35bd 003d
000002b0: 5f1d 283c 8507 bd3c f028 b5bc 9518 e8bd
000002c0: 890a a3bd ce0e dfbd 48b0 113d 36b0 abbd
000002d0: 6669 b03d 1116 a23c 429b 15bd f7d0 4dbd
000002e0: f384 08be 5791 2ebe 69e5 863c 0a09 c8bd
000002f0: 9ef4 2fbe 6091 853d c6ec 31be 0b09 103e
00000300: f629 8c3d 60a9 d1bc 2447 f03b 2e39 803c
00000310: e3e5 103d 9822 16be fe97 a3bd 04a8 bdbd
00000320: aa8f cc3d e4dc 1dbd bdc5 bbbd ba96 603d
00000330: b726 8bbd 592f 37bc 35e6 df3d 1500 0abe
00000340: f137 08be 63b4 40bd 5230 c63d 1683 2abd
00000350: fdc1 23be fd69 84bd 3665 b83d 92d0 d23c
00000360: 41f3 babc 8354 a93d 2ae7 c73d d32a e4bd
00000370: 7369 e9bd 8045 cd3d 8d03 273d 3edb 3dbd
00000380: e17c 90bd 9477 b33d 00b0 ca3d 3698 1abc
00000390: f4b1 f6bd 19c1 90bd 81a2 893d 2a37 d03d
000003a0: cb6c 9e3d 3960 eebd 41a2 043e b4eb 8abd
000003b0: e9ef eebd d052 c6bd 64a5 253e 569a 93bc
000003c0: 0e80 bdbc ccb3 0c3d 78d5 5f3c f81f bdbd
000003d0: aa22 863d 2d5d 75bd 813b 233e 47ca 2fbe
000003e0: 4bed e9bc a59f d2bd a14f 22bd 0dba c0bc
000003f0: 55c3 953d 87eb 00be 562e 59b9 0a41 893d

network.3.bias f4 [64]
0.071918435 -0.16087104 0.07469012 -0.106402285 -0.08029178 -0.17390423 -0.2357393 -0.16760336
-0.06747372 0.112483636 0.061917067 0.022519507 -0.05121643 0.00923778 0.029898513 -0.16171753
0.031637408 -0.16743933 -0.038918488 0.097727984 0.06737151 0.0014818297 0.09806936 0.083537035
0.027991548 -0.10360857 -0.09532462 -0.10475094 0.02807085 -0.130434 -0.09143134 0.0977912
-0.17864119 0.011578594 -0.03546757 -0.04448523 -0.06700356 -0.005575101 -0.1848188 -0.09896313
-0.1598153 -0.18128307 -0.045890793 0.07381297 -0.049256206 -0.030495573 -0.17400959 -0.11647182
0.009653533 -0.17939384 0.157139 0.00322514 0.08069007 -0.12645608 -0.1300374 -0.003948557
-0.19329154 -0.1635852 -0.001733365 -0.060888596 0.09213833 -0.036177944 -0.10578457 0.15667394
00000000: f949 933d 61bb 24be 22f7 983d 71e9 d9bd
00000010: 0470 a4bd f313 32be a565 71be 37a0 2bbe
00000020: a92f 8abd d25d e63d c09c 7d3d d47a b83c
00000030: 52c8 51bd 0f5a 173c baed f43c 4899 25be
00000040: 3a96 013d 3775 2bbe fe68 1fbd 9c25 c83d
00000050: 13fa 893d f439 c23a 97d8 c83d 7715 ab3d
00000060: 884e e53c bb30 d4bd 8e39 c3bd a987 d6bd
00000070: d7f4 e53c 7e90 05be 5b40 bbbd c146 c83d
00000080: b7ed 36be 25b4 3d3c 7146 11bd 2536 36bd
00000090: 2a39 89bd 56af b6bb 2441 3dbe 2ead cabd
000000a0: 9fa6 23be 45a2 39be fcf7 3bbd 412b 973d
000000b0: e0c0 49bd dad1 f9bc 922f 32be c788 eebd
000000c0: da29 1e3c 05b3 37be 0ce9 203e df5c 533b
000000d0: d640 a53d b47d 01be 8628 05be e662 81bb
000000e0: 38ee 45be e182 27be 1432 e3ba 5266 79bd
000000f0: 05b3 bc3d 532f 14bd 95a5 d8bd 226f 203e

network.6.weight f4 [60, 64]
0.0800689 0.03716019 -0.0757757 -0.009118141 -0.045781422 -0.06810635 0.02384321 -0.054517407
0.00046525878 -0.073555015 0.059219882 -7.953451e-05 0.044118438 0.043554705 -0.06497712 -0.007229288
0.06784049 -0.06683 -0.08056207 0.044966366 -0.033023257 0.01262734 0.020894714 -0.03758372
0.06384809 0.08066879 0.10791795 0.026621468 0.090565436 -0.05904741 0.020033808 -0.009876921
0.0868469 -0.0021699609 -0.058053765 0.09131584 0.03339503 -0.079459235 -0.008752373 0.12201228
0.087196305 0.067527026 -0.036394168 0.085840166 0.032033492 0.018627798 0.02237366 0.09999444
0.04111624 -0.081474975 0.00040755307 0.05894246 0.024571426 -0.0515845 0.023483552 -0.050720632
0.02285182 0.024973284 -0.04355576 0.038530327 0.00016492169 0.019252948 0.019030252 0.008425862
-0.018471472 0.07124691 -0.01262762 0.059213165 -0.087054245 0.10597243 -0.1267185 0.035870504
-0.0035084577 -0.019274931 -0.073504046 0.0064846408 0.04968059 0.031236393 -0.08622973 0.03916402
0.082084574 0.016213452 0.049586255 0.08104198 -0.031242479 -0.04680767 0.08300158 0.03820859
-0.034342498 0.066063456 -0.06908074 0.026266823 0.027123397 -0.09250558 -0.05857816 0.035041917
0.054223478 0.009727242 0.038811076 -0.036583196 0.08412147 0.0030301902 -0.033064492 0.031908475
-0.11603485 0.09725361 0.10090236 0.015097448 0.07304229 -0.058946364 0.03115531 -0.0799318
0.054041773 -0.04742242 -0.0017863382 0.10565669 -0.019474052 0.02291285 -0.09902424 0.05625598
0.027188756 -0.0966497 -0.11971834 0.019829357 0.010965939 0.07802393 0.032736845 -0.027114937
-0.085406564 -0.055757713 0.047855336 -0.096552975 -0.071416184 -0.01835077 0.050306357 0.054022353
-0.012734335 -0.04286253 -0.0687488 0.12095447 -0.072244 -0.039396282 0.10926531 -0.07114748
0.03744492 0.024219472 0.10471206 0.045364864 -0.029540937 -0.01609013 0.099452555 -0.026227647
0.036284275 0.0206602 -0.087069124 0.06636938 0.10460928 0.154363 -0.049880143 0.09824763
0.104012266 0.08298946 -0.06059664 0.03733463 -0.036232095 0.065051876 0.023499196 -0.05673247
-0.08020805 0.047611497 -0.080278516 0.085811295 0.10067584 -0.067250654 0.010788635 0.0061251516
-0.08099678 -0.085888684 0.0145164 0.09792156 -0.023806855 0.00521466 0.06937447 0.07430098
0.019987093 0.055157777 -0.029799443 0.08888555 0.05708182 -0.069855906 0.05062842 -0.010627022
0.075797126 -0.035441305 0.029195167 -0.0048304223 -0.0835973 -0.100056015 0.06039641 -0.014648594
-0.06883717 -0.124813884 0.006971392 0.07640423 0.08378415 0.06514968 0.03435756 -0.0034962855
-0.091776416 0.027729494 -0.017490504 0.068161696 -0.027507655 0.04563146 -0.063638896 0.06647341
-0.12008611 0.052507106 -0.1095082 -0.039755907 -0.08581862 0.0050534164 -0.013036504 -0.0435659
0.028554253 -0.057986375 -0.04197882 0.054236803 -0.077992484 -1.0854976e-05 0.07743154 -0.06652552
0.03889816 -0.031480398 -0.0025450506 0.070955426 -0.052690968 0.045019273 -0.10220062 0.06956648
-0.047452513 0.07469917 -0.06811454 0.0379225 -0.022313435 0.024499385 0.0045777913 0.025499728
0.048226513 -0.095761634 -0.04190514 0.0166928 -0.0011730429 -0.034013785 -0.13228326 -0.041319937
00000000: 2afb a33d 4935 183d 4a30 9bbd 4164 15bc
00000010: 4d85 3bbd 587b 8bbd d652 c33c a54d 5fbd
00000020: faed f339 03a4 96bd 8c90 723d c4cb a6b8
00000030: 89b5 343d 6b66 323d b912 85bd aae3 ecbb
00000040: f4ef 8a3d 2bde 88bd bafd a4bd a72e 383d
00000050: 6543 07bd e7e2 4e3c 642b ab3c 63f1 19bd
00000060: cac2 823d ae35 a53d 1604 dd3d 4415 da3c
00000070: 5f7a b93d b2db 71bd f11d a43c cfd2 21bc
00000080: cadc b13d e735 0ebb c9c9 6dbd cd03 bb3d
00000090: 3ac9 083d 86bb a2bd 1d66 0fbc 93e1 f93d
000000a0: fa93 b23d 9c4b 8a3d 0d12 15bd f8cc af3d
000000b0: 8d35 033d 5399 983c f748 b73c e3c9 cc3d
000000c0: 8169 283d 5adc a6bd d9ac d539 a66d 713d
000000d0: 044a c93c 454a 53bd 9460 c03c 70c0 4fbd
000000e0: bd33 bb3c c694 cc3c 8667 32bd fad1 1d3d
000000f0: d4ee 2c39 5cb8 9d3c 55e5 9b3c a00c 0a3c
00000100: 7c51 97bc e6e9 913d 14e4 4ebc 8189 723d
00000110: 7f49 b2bd 1308 d93d 7fc2 01be f3ec 123d
00000120: 27ee 65bb 76e6 9dbc 4a89 96bd 1c7d d43b
00000130: e07d 4b3d 77e3 ff3c 3699 b0bd 746a 203d
00000140: f51b a83d 13d2 843c f51a 4b3d 56f9 a53d
00000150: 3af0 ffbc 66b9 3fbd bbfc a93d 9c80 1c3d
00000160: b8aa 0cbd 474c 873d 347a 8dbd 852d d73c
00000170: e331 de3c 9173 bdbd a7ef 6fbd 1d88 0f3d
00000180: 7019 5e3d 035f 1f3c 5df8 1e3d 43d8 15bd
00000190: e147 ac3d 2896 463b a26e 07bd 76b2 023d
000001a0: aea3 edbd e72c c73d e6a5 ce3d 495b 773c
000001b0: 3297 953d be71 71bd 6c39 ff3c 49b3 a3bd
000001c0: e85a 5d3d 033e 42bd 9023 eaba 8962 d83d
000001d0: 0c88 9fbc bbb3 bb3c 39cd cabd ac6c 663d
000001e0: f4ba de3c 47f0 c5bd e42e f5bd 2d71 a23c
000001f0: 7baa 333c 03cb 9f3d 1217 063d 2520 debc
00000200: a3e9 aebd 3362 64bd f503 443d 91bd c5bd
00000210: a642 92bd 5b54 96bc 0a0e 4e3d 8b46 5d3d
00000220: aca3 50bc 9f90 2fbd 2ccc 8cbd fab6 f73d
00000230: aaf4 93bd ff5d 21bd 7ec6 df3d c5b5 91bd
00000240: d85f 193d ea67 c63c 4773 d63d 82d0 393d
00000250: d6ff f1bc 73cf 83bc c8ad cb3d 5ddb d6bc
00000260: d29e 143d 943f a93c 4c51 b2bd abec 873d
00000270: 643d d63d 5611 1e3e 1f4f 4cbd 0e36 c93d
00000280: 6204 d53d 61f6 a93d 2f34 78bd 32ec 183d
00000290: 1b68 14bd eb39 853d 6381 c03c 4e60 68bd
000002a0: 1e44 a4bd 4604 433d 1069 a4bd d5bd af3d
000002b0: 232f ce3d b6ba 89bd d1c2 303c 7fb5 c83b
000002c0: a4e1 a5bd 68e6 afbd 32d6 6d3c 198b c83d
000002d0: 9806 c3bc bddf aa3b 3414 8e3d 1d2b 983d
000002e0: f9bb a33c 1fed 613d f61d f4bc a109 b63d
000002f0: a0ce 693d 9d10 8fbd bf5f 4f3d f61c 2ebc
00000300: 863b 9b3d e72a 11bd b42a ef3c 8548 9ebb
00000310: 1035 abbd 2bea ccbd 3a62 773d a800 70bc
00000320: 81fa 8cbd 6c9e ffbd 4670 e43b d279 9c3d
00000330: 0697 ab3d 326d 853d 83ba 0c3d f021 65bb
00000340: 46f5 bbbd f728 e33c 3f48 8fbc 5c98 8b3d
00000350: bc57 e1bc 0ee8 3a3d 1c55 82bd 3623 883d
00000360: b5ef f5bd b111 573d d645 e0bd 17d7 22bd
00000370: acc1 afbd 2197 a53b 1097 55bc 2872 32bd
00000380: 9cea e93c 1f83 6dbd fcf1 2bbd 6927 5e3d
00000390: 86ba 9fbd c41d 36b7 6d94 9e3d 883e 88bd
000003a0: ad53 1f3d 97f1 00bd ddca 26bb 1451 913d
000003b0: 7cd2 57bd 2166 383d 8f4e d1bd df78 8e3d
000003c0: 915d 42bd e1fb 983d a37f 8bbd a054 1b3d
000003d0: aaca b6bc efb2 c83c 4c01 963b cee4 d03c
000003e0: 2a89 453d ad1e c4bd b9a4 2bbd 57bf 883c
000003f0: cac0 99ba 0a52 0bbd 4375 07be 183f 29bd

network.6.bias f4 [60]
-0.00191007 0.0057076174 -0.0059298356 0.020130083 -0.015178005 0.010706455 -0.0018134705 -0.008901636
0.04334183 0.0027542734 0.00032846665 -0.020882778 -0.01527999 0.0026537438 0.0024906818 -0.00749444
-0.0076168324 0.011147153 -0.0040240632 0.001868802 0.0011214678 -0.02001226 -0.030350821 -0.009386756
-0.026271852 -0.0008882956 -0.0002667176 0.004524785 -0.020499984 -0.0069058016 0.010209705 -0.028762873
-0.0034670532 0.01659691 -0.0054753255 0.005123427 -0.011262241 -0.0011892503 -0.004353622 -0.008634892
0.030916154 0.022980154 0.005913931 0.012073367 0.0053832983 0.0038896017 -0.023632644 0.007841788
-0.00550131 -0.009033381 -0.005876128 -0.00084904634 0.0063765417 -0.0111697605 -0.0034485986 -0.0025919098
-0.013140476 0.0034877874 -0.008204435 -0.0073111006
00000000: 505b faba f706 bb3b 114f c2bb d8e7 a43c
00000010: 2bad 78bc 216a 2f3c f9b1 edba 2bd8 11bc
00000020: 3487 313d 0a81 343b 0c36 ac39 5c12 abbc
00000030: ec58 7abc 6fea 2d3b b53a 233b eb93 f5bb
00000040: 9f96 f9bb 8ca2 363c 4adc 83bb 97f2 f43a
00000050: 37fe 923a c0f0 a3bc 49a2 f8bc e9ca 19bc
00000060: 1138 d7bc 82dc 68ba 3bd6 8bb9 a644 943b
00000070: 95ef a7bc 104a e2bb 9b46 273c 1ea0 ebbc
00000080: 8037 63bb 3ef6 873c 5c6a b3bb 6ce2 a73b
00000090: 4385 38bc 9ee0 9bba d4a8 8ebb 5d79 0dbc
000000a0: e043 fd3c e040 bc3c a6c9 c13b 5fcf 453c
000000b0: 6166 b03b b0e8 7e3b 3f99 c1bc d87a 003c
000000c0: 5544 b4bb bf00 14bc 898c c0bb 8992 5eba
000000d0: 4ff2 d03b 5f01 37bc e201 62bb 08dd 29bb
000000e0: 274b 57bc 5d93 643b e56b 06bc f591 efbb
